pancollection/models/ADKNet/ADKNet_for_HSISR/Weights/ADKNet4HSISR.pth (torch, 956127 bytes, 101 tensors)

deconv.weight f4 [31, 31, 8, 8]
00000000: f63a 1ebd e607 023d 55ee 1b3c 6de5 28bc
00000010: bd18 bbbc 871d a2bb 9cb9 f0bb 8bc6 4a3d
00000020: 7c9f d53a 957c 44be 1e3a 30be 5054 243d
00000030: 5e39 e73a 40ef eb3d b225 c9bd 009a febd
00000040: c399 3e3d 4deb c43c 1a1e 36be 3efe d33d
00000050: 1734 c33d b8b6 e03c a5ea 88bd 643d 9cbd
00000060: cb1e cd3d 6dd1 cfbd bc92 44bd ae15 233e
00000070: 7aff ed3d 7da7 e13d 08e7 d03d 6d75 293e
00000080: b20b 0bbd 1769 ab3d de79 323c dd3c b4bd
00000090: d79c 203e b841 593d 1466 353e 3e38 0c3e
000000a0: 255b e73b dc1d 94bd 111f c33d e555 293e
000000b0: 6f69 07bd e9d8 2d3d 6275 1f3e a281 233d
000000c0: 310c 0c3e 2ac4 e33c 651f 42bd f791 4e3e
000000d0: f8fe 093e 8a53 f2bc bc21 cd3d d151 8a3d
000000e0: 561b 813d 69c8 eebd 408b cfbd 8603 963b
000000f0: b3a7 c83d b0b5 0f3e 89ea 263e 09a9 d43b
00000100: 8602 55bd 9536 ee3d bc89 5c3e f6cc c53a
00000110: 0923 9e3c ebde c03d 85ec 23be 25e9 a23d
00000120: bfda 25be 9b2c 1ebe 6060 073e 634e 0f3d
00000130: 73dd 3f3e ed77 b0bd 2680 00bf 5398 01bf
00000140: 5a0a 9abd 6a4b 08be c9d1 ac3e 684b bc3e
00000150: 74e2 903e bf81 513e ce25 3fbe 96d7 633d
00000160: 75b1 3f3e 6f0d f5bd d979 503e 4e1e cdbc
00000170: 1359 893e de0a 8a3e 2793 833d 8bc6 15be
00000180: 8a9a f13d 908d 7bbd feec 713e e567 06be
00000190: 3c40 b93e d619 0f3e 7acf e3be 9b48 523e
000001a0: 7b3e 4bbd 8b22 9cbd 8a30 c83e de38 c83e
000001b0: 565b 1a3f d553 023f d585 113e 6ddf c1bc
000001c0: 25e6 5dbd a4e0 7dbe 2e46 c33d 6a11 e23c
000001d0: 1e58 ca3c 5709 8bbe 2f68 d8be b8b8 45bd
000001e0: 1b67 433c d0c5 a9bd ef51 2f3d 261e 8ebe
000001f0: 0042 ba3d 6343 213e 4183 4dbe 61e5 27b9
00000200: 700e 69bd f664 4f3d 8475 193d fd5e df3c
00000210: cc1b a3bc f782 c63c a8e5 183d 5b27 7a3d
00000220: d440 e33c 24ef 903d 9bfb febd 1fbc 0dbe
00000230: 3e28 9bbc c3e7 873b 2541 933d 03f3 663d
00000240: e7e5 e0bc a8b1 78be b7a2 4dbe bdad 87be
00000250: e9a5 29be 8822 b2bd d2c6 5fbe e1be 9bbd
00000260: 8465 0bbe 3670 373c 2d5a 85bd 9fcb 1dbf
00000270: fee1 08be 04a7 aabd e942 17be 4fae 5bbe
00000280: 5112 95be 8d2f 26bd db8e f6bd 984c 5fbd
00000290: cdda 6bbe 3699 34be 5132 90be f7ca edbd
000002a0: fcd8 17be e895 41bd 6565 4ebe d000 59be
000002b0: 66e7 21be 64f9 debd b95f 91be f195 8ebd
000002c0: 72e9 a3bc 96b3 57be f8b2 1b3e 9596 053d
000002d0: f80b e1bd 730e 413d 0ca5 4f3e 5046 533e
000002e0: 8344 43be 2d5b 153e 3993 503e 87cd d1be
000002f0: 5b4e a4bd 47d9 a03e d628 503d d115 2bbe
00000300: b012 e6bc 9ae1 033c cc20 04be 12be 1ebd
00000310: 2246 bdbd 57dc 0ebc 8cb6 71be 95bb 353d
00000320: 0e41 093e 0f4c c13c 36ab bebe bffb 4c3d
00000330: cd15 963e c009 00bf 7c57 9dbd 87dc 1f3e
00000340: 71a3 c6be a3aa 69bc 2b51 0ebe 7676 8fbe
00000350: 59ac 0ebe 9743 0fbe 824f 013e e89b f73d
00000360: 0aae 91be 92d3 16be 0e74 613c e55d 91bd
00000370: fd64 eabe a401 36bd b92a 9d3d 0b50 58bd
00000380: 4cf2 b8bd b230 823c f2de cbbe be2c dfbd
00000390: 6911 71be cd66 ffbd cc50 b2be b841 d9bc
000003a0: 69ae 0f3e af97 153d 9903 e0be c772 6dbd
000003b0: 8027 cb3d 1f70 55bf 882e 1ebc 6e67 873c
000003c0: 302f 15bd 8fa1 ea3c b5db 20bd f60a d1be
000003d0: e1e0 4c3e 200d 26be 758e 7a3e 10bd 22be
000003e0: 6a29 77bd 2afc ca3b da66 4a3d 9702 1abe
000003f0: a118 11be 1bff 56be e5d9 ad3d 37ff 34be
-0.03863045 0.031745814 0.009517272 -0.010308606 -0.022838945 -0.0049473676 -0.007346345 0.04950575
0.001629814 -0.1918815 -0.1720967 0.04011947 0.0017640998 0.11520243 -0.09821643 -0.12431717
0.046533357 0.024037981 -0.1778492 0.10351227 0.0953142 0.027430877 -0.0668538 -0.07628897
0.10015639 -0.10147367 -0.0479915 0.15926239 0.11620994 0.11018274 0.10200316 0.165487
-0.0339467 0.08369654 0.010893313 -0.08800671 0.1568483 0.05304119 0.17714721 0.1369333
0.007060426 -0.07232258 0.0952741 0.16536672 -0.033059534 0.04244319 0.15572122 0.03991855
0.13676526 0.0278035 -0.04739322 0.20172869 0.13476169 -0.02958085 0.100162 0.067538865
0.06304042 -0.11659319 -0.10133982 0.0045780567 0.09797611 0.14034152 0.16300406 0.006489877
-0.05200436 0.116315044 0.21536916 0.001509099 0.019303815 0.09417518 -0.16008194 0.07954625
-0.16196726 -0.15446703 0.13220358 0.034986865 0.1873682 -0.08616624 -0.5019554 -0.50623053
-0.07521506 -0.13310018 0.33753803 0.3677628 0.2829777 0.2045965 -0.18666765 0.05562552
0.18720038 -0.11965453 0.20358981 -0.025038864 0.2682577 0.26961416 0.064245515 -0.1462652
0.11797054 -0.0614143 0.23625562 -0.1312557 0.3618182 0.139747 -0.4449423 0.2053551
-0.049620133 -0.07623776 0.39099532 0.39105886 0.6029562 0.5090917 0.14211209 -0.023666108
-0.05417456 -0.24792725 0.0953487 0.027596194 0.02470022 -0.27155563 -0.42266986 -0.048271865
0.011926438 -0.08289683 0.042802747 -0.27757376 0.0909462 0.15748362 -0.200696 -0.00016011811
-0.056898534 0.050633393 0.037465587 0.027266974 -0.019910716 0.02423237 0.037328392 0.06107269
0.027740873 0.070768625 -0.12450334 -0.13841294 -0.018940087 0.004147501 0.0719016 0.056384098
-0.027453376 -0.2428652 -0.20081602 -0.2649974 -0.16567196 -0.086979926 -0.21853188 -0.07604767
-0.13612944 0.011196187 -0.0651134 -0.61638826 -0.13367459 -0.08332637 -0.14771618 -0.21453212
-0.29115537 -0.04057269 -0.12038966 -0.054516405 -0.23032685 -0.1763657 -0.28163388 -0.11610978
-0.14828867 -0.047262102 -0.20155866 -0.21191716 -0.15810928 -0.10887411 -0.28393343 -0.06962193
-0.020008776 -0.210646 0.1520499 0.03261431 -0.10988611 0.04713292 0.20277804 0.20632291
-0.19069104 0.14585562 0.20368661 -0.40977117 -0.080227576 0.3141577 0.050820194 -0.16707541
-0.028085083 0.008049393 -0.12903136 -0.038755484 -0.092418924 -0.008719525 -0.23604792 0.044368345
0.13403723 0.023595838 -0.3724 0.05004477 0.29313508 -0.5001488 -0.07682702 0.15611468
-0.3879657 -0.014261874 -0.1389815 -0.28020066 -0.13932933 -0.13990627 0.12627986 0.12090284
-0.28453094 -0.14729145 0.01376058 -0.07097987 -0.45780173 -0.04443516 0.07674164 -0.05281071
-0.090305895 0.01589236 -0.3981853 -0.10897206 -0.23541798 -0.124707796 -0.34827268 -0.026520595
0.14031376 0.03652161 -0.43752745 -0.05797079 0.099196434 -0.8337421 -0.009654649 0.016528811
-0.036421955 0.02864149 -0.03927203 -0.40828675 0.2000766 -0.16215944 0.24468406 -0.15892434
-0.06034223 0.006194611 0.049414493 -0.1504005 -0.14169551 -0.20995753 0.08488826 -0.17675482

deconv.bias f4 [31]
00000000: 9e71 fa3b 0788 053d 8104 d53d 71b2 a63d
00000010: 366e 393c 7fe6 9c3d 088e a03d 6dba d63d
00000020: 32f2 613d f471 2e3e cceb 803d 168f 6ebc
00000030: 9552 dd3b cdb7 b23b 8524 8dbd b8c8 8c3d
00000040: e947 9e3d 4fb6 7fb9 fdbd a73d d854 933d
00000050: c0f6 813d 2a84 6cbb eecf 853d de3f ba3d
00000060: 3c18 1cbe 1aeb ef39 d0c0 20bd 6ca3 a33d
00000070: 6dac cabc d77c 9f3d e1ee 773d
0.0076429388 0.03260043 0.1040125 0.08139504 0.01131778 0.07661151 0.0783959 0.10484777
0.055162616 0.17035657 0.06294975 -0.0145604815 0.0067542293 0.0054540397 -0.06891731 0.068742216
0.077285595 -0.0002438661 0.08190534 0.07193917 0.06345892 -0.0036089518 0.065338 0.09094213
-0.1524362 0.00045760797 -0.03924638 0.079901546 -0.024740422 0.07787483 0.060530547

upsample.weight f4 [31, 31, 8, 8]
00000000: c2af 92bb b79b debc 9045 973d c72d bd3d
00000010: 4710 5e3d d889 a73d 564d 01bd 2bfb 34bd
00000020: a1d4 d3bc c0f8 863c 5632 163e 12b5 5b3e
00000030: 0c11 743e 6d5b 4a3e e83f 7d3d 5c4e ddb8
00000040: 0a2e ed3c ec4b c03d 509f bd3e a095 f43e
00000050: ab3c 083f 1600 f43e e0b9 553e 10e7 bf3d
00000060: c1fa 2c3d c33d 203e 5d7a f43e d66b 233f
00000070: 6902 3f3f ede8 213f e6a6 a43e 81ae 163e
00000080: 85b0 b83c b534 373e 90c1 0a3f 3765 3c3f
00000090: 2113 653f 78aa 3d3f ce7c cb3e 7965 3f3e
000000a0: 9ba7 4c3d 0300 053e 5094 f23e e7e1 1e3f
000000b0: 8ee4 363f 7627 243f 41e3 9f3e f36b 193e
000000c0: 3714 50bc 6d9c 633d 3e65 793e 8fe6 b73e
000000d0: a869 da3e 6bd6 b53e 9dc6 273e 55ed 4f3d
000000e0: e79c d9bc 724f 0dbc 18d9 093e c460 3f3e
000000f0: 365d 503e e132 433e 6a1f 343d 81f3 54bb
00000100: 0a1c 223d 47b4 3e3c 3260 c4bc 8dde 24bd
00000110: 7581 c5bc 4adb 15bd 3f88 babc 019c 813b
00000120: d2ef a43c d706 473c 1eac d4bc 5c46 27bc
00000130: 91e6 cfbc 9260 98bc dfcb 1e3c db60 acbb
00000140: d1ba 25bd 40e2 8abd 311a 00bd d70d ae3b
00000150: 234d 82bb b381 e03c 467d 56bc 1dc4 51bd
00000160: 915a 58bd c6c8 3cbd 12e3 563c 5e27 613d
00000170: e9eb 793d 3637 9b3d 2deb 6d3c 4eb9 47bd
00000180: 2f55 cabc 6c6d 83bd 18f1 ab3a 2ece 823d
00000190: e578 30bc b2d8 a43d 4957 333d a914 33bd
000001a0: 4984 19bd 315e 8abd 2c29 ac3b 6307 4b3d
000001b0: 2c92 0f3d 7e6e 9a3d 0d29 9d3c 67fe 1abd
000001c0: 3444 553c e307 123c 4248 e03a 690c bd3c
000001d0: 0a3a b03c c6f1 e53c c175 273d 37c2 6f3c
000001e0: 113e 123d 8844 62bc 93ed 16bd 5d93 16bd
000001f0: e392 87bd 001b f4bc becf 51bb 56d8 1d3c
00000200: 6698 adbc 851c eebb 7dbf 003c 1f58 323b
00000210: fe67 883c 8622 96ba 1d68 c1bc bf21 2bbc
00000220: 042f 0bbc dbd8 89bc c386 54bb 6d4a f839
00000230: 5455 aebb b464 963b dc7a 91bc f6e2 b3bc
00000240: 47a9 5f3b f08e 7bbc 2a17 d33b 14cb 883c
00000250: 5a26 03bb df52 d23c 60a9 8dba 96ed 86bc
00000260: 7a4a 193c d2c9 8cbc 3180 6d3c 3748 793b
00000270: 7d28 89bc f682 093d 545d 74ba 3741 95bb
00000280: 0a87 eb3c 0c3c 00bc 5a43 943c 90e1 253c
00000290: 8384 c5bc faf6 b23c a8a4 1d3c 41ab a83a
000002a0: 9208 4d3c 8e6b 41bb 1bcb 053d 0a42 ba3c
000002b0: 2aeb 3d3c 296a f93c f474 3e3c a6ab 5d3c
000002c0: cd2a 73bb 435f 75bc b300 9b3c b5ea 4a3b
000002d0: a461 0e3c 9666 6c3c f191 2ebc eb3e d13b
000002e0: 6872 f33a dfe0 c2bb 35ee d43b 6df3 713a
000002f0: 5524 a43b 63d9 d3bb 44b8 65bc 84ea 51ba
00000300: 0ae2 58bc 5a63 71ba 70d8 583c 8062 903b
00000310: f18b 4d3b 3311 44b9 6de0 38bc d03d 1c3a
00000320: 7944 4bbb 636d 13bc ab03 c03b 8569 d8bb
00000330: 6ef8 d8b9 49c2 553b 6ddd 8abc f98c 94bb
00000340: 3850 a13a 5fb4 26bb 7f78 c13b 8328 80bb
00000350: b86c 373b b06a 1a3c d2e1 58b9 43ce b53b
00000360: 985b 493c 4f39 10bc 2f19 07bc 3af6 d1bc
00000370: 9e33 13bd c3d2 47bb 53a2 f6bb fce1 a23b
00000380: 8f42 fb3b f807 df3b 2bc0 bc3a 96ed 76bc
00000390: 2f74 103c df12 e5bb 775e 8f3a 0c67 543c
000003a0: 0630 433c 7f94 413c c390 6c3c 9c46 d4ba
000003b0: 22d6 3938 d1c4 913b cf7d 283c f474 bd3c
000003c0: 9b6f 073b 6a4f 18bc 9454 c53b e8f6 0cbc
000003d0: 34f1 22bb cf5e 7c3b 8865 56bb 38d5 4d3c
000003e0: 5c4d 773b 5e46 3c3c ad97 333c ebf7 b53b
000003f0: fb2e b73c aac9 2e39 abd9 f13b 5356 6b3c
-0.0044765184 -0.02717386 0.07386315 0.09237247 0.054214742 0.081805885 -0.031567894 -0.044184845
-0.025858225 0.016476035 0.14667639 0.21455792 0.23834628 0.19761439 0.061828524 -0.00010552697
0.028952617 0.09389481 0.37035608 0.47770405 0.5321757 0.47656316 0.20871687 0.093702435
0.042231325 0.1564856 0.47749606 0.6383642 0.7461305 0.6324604 0.32158583 0.14715005
0.022545109 0.178912 0.542016 0.7359194 0.89482313 0.7408824 0.39743656 0.18691052
0.04996453 0.12988286 0.47378778 0.6206345 0.71442497 0.6412271 0.31228068 0.14982586
-0.012700132 0.0555691 0.24355027 0.3591809 0.42658734 0.3551515 0.16384359 0.050763447
-0.026564075 -0.008624898 0.13461721 0.18689257 0.20348057 0.19062378 0.04397527 -0.0032493772
0.03957752 0.011639661 -0.02397165 -0.040251303 -0.024109581 -0.036586083 -0.022770045 0.0039553647
0.020133886 0.012147627 -0.025960978 -0.010209646 -0.025378497 -0.018600736 0.009692161 -0.0052605695
-0.040461365 -0.06781435 -0.031274978 0.0053117084 -0.0039764806 0.027405595 -0.013091391 -0.05121242
-0.052820746 -0.04608991 0.013115661 0.054969184 0.061015997 0.0757889 0.014521402 -0.048760705
-0.024698822 -0.06417355 0.0013118116 0.06386982 -0.010771011 0.08049144 0.043784413 -0.043720875
-0.037479673 -0.06756247 0.0052539315 0.04956759 0.03505151 0.07540606 0.019184614 -0.037840273
0.013016749 0.008913013 0.0017111378 0.023077207 0.02151205 0.028069388 0.040883783 0.014633707
0.035703722 -0.013810284 -0.036847662 -0.03676163 -0.06619813 -0.02979803 -0.0032014693 0.009634098
-0.021190833 -0.0072665834 0.007858154 0.0027213169 0.01665115 -0.0011454381 -0.023609215 -0.010445057
-0.008495096 -0.016827038 -0.0032428957 0.00047357698 -0.0053202305 0.0045896415 -0.01775878 -0.02195881
0.0034127997 -0.015353903 0.0064419704 0.016698398 -0.0020011873 0.025674282 -0.0010807924 -0.016470712
0.0093561355 -0.01718608 0.014495895 0.0038037428 -0.01674294 0.03357216 -0.00093217683 -0.0045548934
0.028750915 -0.007826816 0.018098522 0.010124579 -0.024111038 0.021846283 0.009621777 0.001286842
0.01251425 -0.002951357 0.0326644 0.022736568 0.011591712 0.030446129 0.0116245635 0.013529694
-0.0037104369 -0.014976325 0.018921232 0.003096265 0.0086902715 0.014428755 -0.010654912 0.0063856742
0.0018573524 -0.005947217 0.006498123 0.00092296937 0.005009214 -0.0064651235 -0.014020983 -0.0008007663
-0.013237486 -0.0009208225 0.0132351965 0.0044062734 0.003136393 -0.00018698424 -0.011283976 0.00059601385
-0.0031016155 -0.008998248 0.0058598123 -0.006604376 -0.00041383825 0.0032617024 -0.016951287 -0.004533407
0.0012307232 -0.00254371 0.005904257 -0.0039110794 0.0027988385 0.00942485 -0.0002068349 0.00554827
0.012289904 -0.008802726 -0.00824575 -0.025630105 -0.035937898 -0.0030490614 -0.007526675 0.004970787
0.0076678465 0.00680637 0.0014400532 -0.015071293 0.008816763 -0.006990775 0.0010938187 0.012964021
0.011913305 0.011815189 0.014438811 -0.001619536 4.4306864e-05 0.004448511 0.010283901 0.023127057
0.0020665887 -0.009296278 0.0060220454 -0.008603789 -0.0024863007 0.0038508659 -0.0032714326 0.012563042
0.0037735319 0.011491386 0.010961455 0.0055532358 0.02236127 0.00016669059 0.0073806844 0.014363843

upsample.bias f4 [31]
00000000: 9be7 233b 7de3 bcbb 121e aebb c189 99bb
00000010: f3d8 31bc bf4b f239 216c ba3c c606 133c
00000020: b391 413c eb0f 32bb 8555 e53a 44c3 09bb
00000030: 53ef ce3b d8ae cc3c f245 633c f574 623b
00000040: ad6a 28bc 4e96 a7bb bc4e e83b 854e e1bc
00000050: ae80 f73b fae3 32bc 85c6 fe3b 6580 4e3c
00000060: a723 de3c 3c97 0cb9 f970 2c3c 5b0d b13b
00000070: c87e 213c 523b 963c bd74 d23c
0.0025009874 -0.0057644234 -0.0053136433 -0.004685611 -0.010854947 0.00046214272 0.022756638 0.008973783
0.011814523 -0.0027170132 0.00174968 -0.0021020928 0.0063151508 0.024985716 0.013871657 0.0034554575
-0.01027934 -0.0051143533 0.007089464 -0.027503261 0.0075531816 -0.010918612 0.00777513 0.012603854
0.02711661 -0.0001340778 0.010524982 0.0054032034 0.009856887 0.018338833 0.02569043

adk1.ADKGenerator.spatial_branch.0.weight f4 [60, 1, 3, 3]
00000000: d801 313e d499 4cbb ecb6 3d3d c187 be3e
00000010: 2393 9cbc 6949 61be 2d38 29be 190b a63e
00000020: 894e 53bc a0bc 803e 7d31 933e be8a f3bd
00000030: 4c55 0bbe 7d2b cb3e 7362 aebd e9ba b9be
00000040: 682c efbc 17fb 33be 0414 483b 8b84 61bd
00000050: 7d3d c83d 8c5b 003e bb40 a33e 15e9 a7bc
00000060: 271a 3cbd 7aa3 41be 0678 013e 8916 1cbe
00000070: 7fbb 8bbe 1d8d 9abd 8104 90be bb00 39be
00000080: 98fb 3a3e a3f6 58be 0249 afbe 528d 03be
00000090: ba84 e0bd 1fe9 55bd 7a7a 0fbe 161e 493e
000000a0: 4c45 b83e 6d0f a33d ef50 85be 0bc0 e73e
000000b0: 4db7 f53d aaa9 103e 3c1f ca3d f35e 7d3e
000000c0: add2 e43d c253 0abe ac7b 87be be59 d8be
000000d0: 4a79 90be e6ea 4b3e 1b2f 053e 3e4e 43bc
000000e0: fe9d e93d 3f10 95be 63de 023e 36d9 343d
000000f0: 9652 c9be 2bca 40be c1a8 ffbd dc53 003e
00000100: 461f 84be ca52 6dbe 9f60 62be 011e e53e
00000110: 2322 963d 0fa9 32be 29d2 e83e 67b4 103e
00000120: c602 88bd 1550 de3d aad4 c3be 0a79 473e
00000130: 72f7 f13d 409b eabe 362d 063d 2ea4 8f3c
00000140: 13b3 cfbe 5b26 893e 65f5 003d 82e4 a3bd
00000150: 5d6f 30be 0d5e 18be 07d4 7c3e da43 acbd
00000160: 2270 eabe 877f d8bd c6f3 90be c1ba 993d
00000170: 0b70 9d3e 671e ed3e 16b4 b63e 4946 863e
00000180: 57e0 24bd de85 953d 9aaa 3fbe da44 65be
00000190: eecf 6fbd 8b8a c23d 65a3 a43a 0a22 873e
000001a0: 33dd c9bd 93ee 17bf 59f3 d5be 9bbf 66be
000001b0: f33a 3fbe 9959 853e a5ca d3bd 8c8a 9cbe
000001c0: 2288 bebe 31fb f3bd 0670 943d 9c0c d53e
000001d0: 8913 893d cb71 bebe b868 373e c0e0 083e
000001e0: 1b2f 38bd 0318 c43c b2df c73d 230c 423d
000001f0: d444 053e e070 4bbe 8b60 393f c260 30bb
00000200: 43b0 f63d da03 bc3e 8153 8a3e efb6 3c3d
00000210: acad 123f 2365 f93c 8425 003f 3e64 553e
00000220: 83af f73d 04ae 7fbe 19d8 e53d 29d2 b0bd
00000230: e23a 9dbd e203 a1be b488 3abd 09e4 a3be
00000240: 3c04 063e 3276 c63e df9b 733e d9b6 c1bd
00000250: 0d18 94bd 3eb5 88be 2a18 df3d 355a 943e
00000260: 3a2d 0c3e 958a 9abe 006d b03e dc12 06bf
00000270: 6c52 253e de66 ca3e 750a d0be dd80 99be
00000280: 42cb d23e 9a52 f8be 8748 14be f04f 35be
00000290: ff40 463e 8696 0cbf 77cc 93be 304c 3fbc
000002a0: cc7a 9a3d ab9c c93e 12a2 5ebd 9edb 603d
000002b0: ac7d 39be ae98 aa3e f86c 8b3c 21a0 2dbe
000002c0: 2bf3 26be 3a04 763d c852 5fbe 67db 443b
000002d0: 93c4 74bd 6144 8d3e 751b dfbe d103 b33d
000002e0: 213d ab3e 9b18 01bf dc68 37bd a5e7 ee3e
000002f0: 8afd b0be f18e 40bd 4b74 903e 1f02 973e
00000300: f464 5bbe e195 133e 4cba e2be 5111 9b3e
00000310: a8ff 873e c61a ce3d 1067 36be 14b4 553e
00000320: ce52 9d3e 4f22 893e b0a1 62be cdaa 8cbe
00000330: 5ce0 8a3e e1e6 09bd 4967 343e 84f5 dcbb
00000340: d74c 08bc 62a6 90bd ddc7 aabe 5880 06be
00000350: 1ca4 7cbe 2224 f23e 0943 bb3e ca09 74be
00000360: 49ca d2bd 0af4 c63e 7e4b 83bd ca78 203e
00000370: 45cf 8dbe 4e67 9e3d bbdf dbbe a2ea 1f3e
00000380: 061e 02be e7fd 47bd ef4e 223e 9b29 15bf
00000390: 3a83 35bd bfb9 133e 4079 c4bd 419f 793b
000003a0: 33e1 133e e11d d8be 0a95 163f 82de 8c3e
000003b0: 9c28 d4be 9bfb 023e 6524 7cbd 7062 c53d
000003c0: 5778 673e 2c14 0c3f b2fd 94be f1c3 43be
000003d0: 1881 b33d a522 95bd f1e0 803e e090 d33e
000003e0: f918 3ebe 554e 8a3d f1d3 733e af6e 373e
000003f0: 0d3d 833d 7d8e 953d 1f46 68be 295a 54be
0.1728586 -0.0031219618 0.046317026 0.37212947 -0.019113129 -0.2200066 -0.16525336 0.32430342
-0.012897142 0.2514391 0.28748694 -0.11891697 -0.13606757 0.39681616 -0.085148714 -0.36275414
-0.02919598 -0.17576252 0.0030529508 -0.055058043 0.09777353 0.12534922 0.31885323 -0.020496884
-0.04592338 -0.18910018 0.12643442 -0.15242971 -0.27291486 -0.075464465 -0.28128436 -0.18066685
0.18260038 -0.21187834 -0.34235388 -0.12846878 -0.109628156 -0.052224275 -0.14011565 0.19640383
0.3599037 0.079619266 -0.2603831 0.45263705 0.119978525 0.14127222 0.09869239 0.24743252
0.11172996 -0.13508514 -0.26461542 -0.42255968 -0.28217536 0.19913825 0.1300625 -0.01192051
0.11407088 -0.29113957 0.12780146 0.04415246 -0.3932082 -0.18827121 -0.12483359 0.1253199
-0.2580511 -0.23176113 -0.2210717 0.44749454 0.0733073 -0.17447303 0.4547284 0.14131318
-0.06641154 0.10855118 -0.38248187 0.19479766 0.118147746 -0.4582157 0.03275796 0.017534342
-0.4056631 0.26787075 0.031484026 -0.08002569 -0.17229982 -0.14879628 0.24690257 -0.08411379
-0.45788676 -0.10571199 -0.28310984 0.075063236 0.30749545 0.46312258 0.3568427 0.26225498
-0.04025301 0.07300924 -0.18717423 -0.22389546 -0.058547907 0.09499081 0.0012560902 0.26393157
-0.098566435 -0.5934841 -0.41787222 -0.22534029 -0.18674831 0.2604492 -0.10341386 -0.30574453
-0.37213236 -0.11913145 0.07247929 0.41611183 0.06693179 -0.37196192 0.17911041 0.13366985
-0.0449668 0.02393723 0.09759463 0.047374856 0.13014537 -0.19867277 0.7241294 -0.002691314
0.12045338 0.36721689 0.27016833 0.046072897 0.5729625 0.030443734 0.50057244 0.2083902
0.12094023 -0.24968725 0.11222858 -0.08633835 -0.07677247 -0.31448275 -0.045540527 -0.32009915
0.13087553 0.3876205 0.23789929 -0.094587035 -0.0723115 -0.26700777 0.10893281 0.28975073
0.13689128 -0.30183855 0.3445816 -0.5237253 0.16144723 0.39531606 -0.40632978 -0.29981127
0.41170698 -0.4850052 -0.14480792 -0.17706275 0.19360732 -0.5491718 -0.28866932 -0.011675879
0.07542953 0.3937734 -0.05435378 0.054896943 -0.18114346 0.3331961 0.017019734 -0.16955616
-0.16303699 0.060062625 -0.21808922 0.0030038 -0.05975778 0.2759123 -0.43575636 0.08740962
0.33445075 -0.5042817 -0.044777736 0.46661106 -0.34568435 -0.04701132 0.28213724 0.29493806
-0.2142523 0.14412643 -0.44282758 0.3028665 0.26562238 0.100637004 -0.17812753 0.20869476
0.30727237 0.26783988 -0.22131991 -0.2747406 0.27124298 -0.03366745 0.17617525 -0.006743135
-0.008319101 -0.07062985 -0.3335561 -0.13134897 -0.24671978 0.47293192 0.3657458 -0.23831859
-0.10292489 0.38858062 -0.06410883 0.15671077 -0.27697197 0.077345476 -0.4294413 0.15616849
-0.12706766 -0.048826125 0.15850423 -0.5826661 -0.0443146 0.14426325 -0.09593439 0.0038089307
0.14441375 -0.42210296 0.58821166 0.2751351 -0.41437232 0.12791292 -0.061558146 0.09637916
0.226045 0.5471828 -0.29099804 -0.19117714 0.08764857 -0.072819985 0.25171617 0.41321468
-0.18564214 0.06753222 0.23811318 0.17913316 0.06408129 0.07302568 -0.22682999 -0.20737518

adk1.ADKGenerator.spatial_branch.0.bias f4 [60]
00000000: ac8e 613e 16c4 a23c a016 be3d 64fa 9b3d
00000010: 3196 103c 4381 8e3c de1a 253e ff01 1dbd
00000020: 9239 38be 6357 9d3d 679f e3bd ef31 d23d
00000030: fa3a 95bb d2dc 403e 4698 c9bb 38dc 7e3e
00000040: 4dea ffbc 44b2 e8bc e892 c23d 2dd0 b7bd
00000050: 7418 28ba 4b87 63bc 313a 01be cc22 37be
00000060: a630 b4bc 3518 0cbe 76d9 b33b 9238 6dbe
00000070: f2d5 2f3e 25df 8cbe 06bf 7eb9 ccf2 0c3d
00000080: 16aa 8d3e f0a6 bb3c 28c5 30be bd99 f0bd
00000090: d177 183d d83d 5ebe bc8c 583d a842 8cbe
000000a0: 2e38 5c3d 8f8d 56be b605 0cbe 365b 37bd
000000b0: 983e 14bd 7086 7a3e d65f aebb 3604 a6bc
000000c0: 9635 a9bd 0742 d23d b30d 6fbe ba3b 84be
000000d0: 5eb2 c83d 908f 05bc 1385 92bc 6b3d a8bd
000000e0: 54bd 183c ee92 47bc b194 9f3d dc6d 0f3e
0.22027081 0.019868892 0.09281659 0.076161176 0.008824871 0.017395621 0.1612353 -0.03833198
-0.17990711 0.07682683 -0.11114388 0.1026343 -0.0045541497 0.18834236 -0.0061521856 0.24888694
-0.031239653 -0.028405316 0.095006764 -0.08975253 -0.0006412335 -0.013887237 -0.12619855 -0.17884368
-0.021995854 -0.13681109 0.00548857 -0.23166111 0.17171457 -0.27513996 -0.0002429449 0.034411237
0.27668828 0.02290675 -0.17262709 -0.11748073 0.03722364 -0.21703279 0.05286859 -0.27394605
0.053764515 -0.20952438 -0.13674054 -0.04476472 -0.036192507 0.24465346 -0.005321483 -0.02026568
-0.08262174 0.102665 -0.2334507 -0.25826818 0.09799646 -0.008151904 -0.01788572 -0.082148395
0.009322483 -0.012181027 0.077920325 0.14006752

adk1.ADKGenerator.spatial_branch.1.weight f4 [9, 60, 1, 1]
00000000: c5c2 b7bb 4658 bc3e bfb6 51bd 67ca febd
00000010: d78f 46be 502b 78bd ce5b cc3c 9105 febd
00000020: 6f81 8b3d b964 3abd f4f3 dbbd 15ab 31bb
00000030: 7409 0a3d a20c ad3d 84e8 d63e e9be 163d
00000040: 2354 9fbc 778a 34be 315a f83c f115 73bd
00000050: db1a d2bd 54da 8e3b 5850 70bd 8740 09be
00000060: 277a e23d 1420 b63d bbb3 69be c8e9 413b
00000070: dd46 073c 5405 973d 3a48 d1bc 03a9 573e
00000080: cb23 9bbd 15dd ad3b 2054 ea3c bcd3 123e
00000090: a34b 7d3d 9218 2e3e 3397 2bbd 61c9 b8bc
000000a0: 76ba 363e 3a2f 363d 59c7 99bd ffec 3d3e
000000b0: c631 b1be 9853 133c a670 3bbe 3be6 863c
000000c0: c198 263e 2fea 5abd 28ff a1bd d2d6 42bc
000000d0: 1d3c 443d ce87 9c3d 24a8 383c 0822 20bb
000000e0: 56e7 8dbe 3395 f8bd 5e62 bf3c 2915 393d
000000f0: ecd6 b23d 53cd 043e c31e f6bd 65fb 99bb
00000100: 8e0e a2be 5eb9 a2bc 7435 fd3d 1054 573e
00000110: 4413 303e de75 fc3d 86ba 483c 7c4f e1bc
00000120: 4125 0e3d c9e9 863d 74d8 313e d076 ad3d
00000130: f989 273e d0d0 ae3e 7cce 203e 150c 28bc
00000140: 4967 4f3e 4f98 f93b bd24 533d c6cc 25be
00000150: 901a 6cbe 47c3 95bd 2369 41bd 6742 693c
00000160: b8a8 b23b 1098 27bc 1cf6 ae3d 60ab 8bbd
00000170: 4385 1d3e 51a1 7e3e b398 e13d 227e 19bd
00000180: 1021 50bd 5d62 3b3c e6b3 303e 1114 3c3d
00000190: 3e2e 3c3c ddf9 d7bd e198 a3bd d4fb 893d
000001a0: 7b74 43bd a90e 6b3e a7a2 25be a072 b4bc
000001b0: 0919 9a3c dd05 63be 8230 5f3c 0842 d43b
000001c0: fc03 30be 7cb6 883d e10b 57bd 256a 0abe
000001d0: 9817 1fbe eb01 debd ed50 9e3d ab47 9ebc
000001e0: 83a9 f73c d655 3b3e 9abb 563e f39a 323d
000001f0: 66cd 05bd ed29 8cbd 76b8 75bc 414e e4bd
00000200: 6446 76bc 83bc 033e 2d22 d3bb 4662 0e3d
00000210: e9f2 4b3e e560 c8bb 7599 63bd fffd eb3d
00000220: b430 31bd 4d9f c33d a457 4dbe 92c5 93bd
00000230: e467 8ebe b1ac fcbd 502d 35be d4a6 203e
00000240: 907c f63d 065b 503d 69ed 843e 2a61 57be
00000250: f6f8 26bd 8aa9 6dbe 4b47 3bbe 1c4b 813e
00000260: c5ce e0bd 32dd 9bbd f070 9fbd df2a b2bd
00000270: 4c14 7d3d 8592 9dbd fd8a 78bd 40c3 bd3c
00000280: de6e 323c fe77 4d3d b974 383c 4d47 a1bc
00000290: 588c 173d acf5 013e 758c 8e3c 6308 34bd
000002a0: 9274 ab3d 9fe3 12bd 51c1 8dbd 080e e73d
000002b0: 62db 4dbe 9681 4ebe 720a cdbd e4b4 ecbc
000002c0: e88e c3bc 81f8 9c3d b10a 2f3d 5e44 cbbd
000002d0: 32bb 953c 9b06 ccbc 4f32 b9bd e199 a43d
000002e0: f264 fbbe 20c0 f7bd 8c28 563d 0b72 e9be
000002f0: f681 d23b efed c43d dd07 8cbd beb6 7b3e
00000300: 4360 0cbe d44a 67bc d085 a33e 0b42 953d
00000310: d3ae ba3d 3e8f 7b3d ab4f bbbd 02a2 283d
00000320: e338 75bd 0df0 d9bd d41f ad3d 39ab cdbc
00000330: dce8 2e3d a08b da3c 111e c6be 22a4 bcbd
00000340: 6be0 423d fd22 ca3d 7071 a63d 7a6b 65be
00000350: 5096 aebc 00af e3bd 8e2d 0a3d a543 003d
00000360: d1e7 443e 7667 2d3e 047d 49bd e371 eebc
00000370: 982d 8bbe aa1c 23bc c116 553c e5f5 ccbb
00000380: 8d82 eabc ba69 fd3d a928 ab3e 2fad 6cbd
00000390: 27fe 74be 7bdd 01be b450 0c3e 6bdb 0fbe
000003a0: 2bf8 38bd 53ef 3dbe f5e1 d7ba 12da 593c
000003b0: ef6c c33e 43b8 ef3d 1101 39bd 7dd0 283d
000003c0: cebd 2ebe 0fb1 8fbc b325 9d3c b28f c63d
000003d0: 3ec1 ab3d 3deb 7f3d 01bf 73bd d069 1fbe
000003e0: b95e 21bd 5562 49bd 4a3b bb3d 43bc fa3d
000003f0: 320d e03d 4296 6abd 11a0 c9bd 14a4 aebd
-0.005607935 0.36786097 -0.05119967 -0.12440949 -0.19390808 -0.06058818 0.02494612 -0.124034055
0.06811797 -0.045506213 -0.1073989 -0.002711003 0.03370042 0.08449675 0.4197427 0.03680316
-0.0194493 -0.17630945 0.030316444 -0.059347097 -0.102590285 0.004359523 -0.05867037 -0.13403521
0.11058455 0.08892837 -0.22822468 0.0029588807 0.008256641 0.07374063 -0.025547136 0.21060567
-0.07575186 0.005305896 0.028604567 0.14338583 0.06183971 0.1700156 -0.04189224 -0.022556962
0.17844567 0.044478633 -0.07508726 0.18547438 -0.34608287 0.008992098 -0.1830469 0.016467204
0.16269208 -0.05344599 -0.07909995 -0.0118920375 0.04790889 0.0764309 0.011270557 -0.0024434347
-0.27715558 -0.121378325 0.023362335 0.045186196 0.08732399 0.1296895 -0.12017586 -0.004699158
-0.3165173 -0.01986378 0.12363711 0.21028161 0.17194849 0.12327169 0.012251502 -0.027503721
0.034703497 0.0658756 0.17367727 0.08469927 0.16361226 0.34143686 0.15703768 -0.010256787
0.20254244 0.0076170336 0.05154871 -0.16191396 -0.23057008 -0.07312637 -0.047219407 0.014237023
0.0054522417 -0.010229126 0.085430354 -0.068197966 0.15382867 0.24866225 0.11015453 -0.037473805
-0.05081278 0.011437026 0.17256126 0.045917574 0.011485634 -0.105457045 -0.07988144 0.067374855
-0.047718506 0.22954811 -0.16175328 -0.022027314 0.018810766 -0.22170205 0.013622405 0.006477598
-0.1718902 0.06675431 -0.052501563 -0.13517053 -0.15536344 -0.108402096 0.07730279 -0.019321283
0.030232197 0.18294463 0.20970002 0.043604802 -0.032666586 -0.06843934 -0.014997592 -0.11147738
-0.015031431 0.1286488 -0.006443283 0.03476169 0.19916882 -0.0061150664 -0.05556627 0.11523055
-0.043259338 0.095518686 -0.20052963 -0.07215418 -0.27813637 -0.12337626 -0.17693067 0.1568864
0.12035477 0.050868057 0.2596238 -0.21033159 -0.04076477 -0.23209205 -0.18288915 0.25252616
-0.10976938 -0.07610549 -0.07785213 -0.08699583 0.061786935 -0.07693962 -0.060679425 0.023164392
0.010890691 0.05016326 0.011258298 -0.01968732 0.036999077 0.12691373 0.01740096 -0.04395331
0.083718434 -0.035861608 -0.06921638 0.11281973 -0.20103219 -0.2016662 -0.10011758 -0.02889485
-0.023871854 0.07664586 0.042734805 -0.099251494 0.018277738 -0.024905493 -0.09042799 0.080371626
-0.49100453 -0.12097192 0.052284762 -0.4559482 0.006424184 0.09615695 -0.06837437 0.2458143
-0.13708596 -0.0141169615 0.31938028 0.07287987 0.09115376 0.061415903 -0.09146055 0.041170128
-0.059868705 -0.10641489 0.08453336 -0.02510606 0.04270254 0.026677907 -0.38694814 -0.09210993
0.047577303 0.09869955 0.08127105 -0.2240428 -0.021311909 -0.11117363 0.03373485 0.03131451
0.19229056 0.16933998 -0.04919149 -0.02910704 -0.27183223 -0.0099555645 0.013005913 -0.006254899
-0.028626705 0.12373681 0.3342946 -0.05778235 -0.23925076 -0.12682144 0.13702661 -0.14048545
-0.045158546 -0.18548326 -0.0016470539 0.013296621 0.38169047 0.11705067 -0.045167033 0.041214455
-0.17064592 -0.017540483 0.019183015 0.096953765 0.083864674 0.0624802 -0.059508327 -0.15567708
-0.039396975 -0.049166042 0.09142168 0.12242939 0.10940017 -0.057272203 -0.09844983 -0.08527389

adk1.ADKGenerator.spatial_branch.1.bias f4 [9]
00000000: a46d 40bd 390e 91bd 2e83 88bd 46ad 033e
00000010: a72b cabc 513e 1c3d 1b3d ba3b 373e c93d
00000020: a027 803d
-0.04697956 -0.07082791 -0.066656455 0.12859067 -0.024679018 0.038145367 0.005683554 0.0982632
0.06257558

adk1.ADKGenerator.spatial_branch.2.weight f4 [9, 9, 3, 3]
00000000: 196b fb3d eaab 44be dbd7 6dbd 7a2f 373e
00000010: c46a 17be 5e45 5abc ede4 9a3d 4421 2ebb
00000020: 4d18 70bd 363a c6bd 97b0 66bd e1c6 95bd
00000030: bc44 433d fea4 533d a338 8c3c e54a 253e
00000040: 3696 8d3b ebac 80bd c04b dc3d 12bb 3f3d
00000050: cc28 1ebe e9ae fa3b 0843 6b3c 58f0 27be
00000060: 4c93 0ebe 56bd 0d3e ea5c 033e 10e2 b53c
00000070: 0088 1abe 2db5 d8bb 4059 2e3e 72ad 193e
00000080: dd6c efbd 0daf bf3d fbec 47bd ad24 82bd
00000090: 0a5f 30bd 3fa6 d6bd aef4 cabb 2392 cfbc
000000a0: 708a 2d3c 1156 8e3d 289a c1bd 598f 32bd
000000b0: b340 fd3c 3398 50bd 08dc 55be 97bb a03b
000000c0: 96bb 2abe 2d82 573e 1382 483e 7b59 f53c
000000d0: 5b29 693c b5ea 11be 3518 43bd a3b5 a2bd
000000e0: 896d 03be 8e8c a73d 189c ea3c 2947 ab3b
000000f0: 3e51 803d c801 0a3d 9951 c73d 74ef 723d
00000100: 2561 883d 9631 d9bd cdcb ad3d 409c bd3d
00000110: f949 f73d 5c85 64bd 1d07 d83c 2091 e2bd
00000120: f97e 10be 48b5 353e afea 923d 425a 3bbe
00000130: feb0 393b 0b77 a53c d420 dfbd 9d64 6c3d
00000140: d9a6 083d 7106 0e3e 2d37 fabc c4d7 9d3d
00000150: 0e7e 543d fccc ecbd a3b3 463e d4c2 15be
00000160: cab8 a33c f3b8 e4bd 5dc7 d7bd 274a f2bd
00000170: 61d4 bcbc b4f1 44bd c939 053e 4232 1abe
00000180: 0636 973b 57d5 423d fc1a 97bd 3951 663d
00000190: c197 62be 7e96 77bd 2822 303d c235 483e
000001a0: 9c1f 493c 7ac5 3ebe 3772 8dbd cee7 0cbe
000001b0: 933c 34bc 94c7 e3ba df41 343d 4666 96bd
000001c0: 2a37 5e3d 2df0 0d3e 5b9b 64be bd9b 98bd
000001d0: a588 873d 2a28 7e3e e667 223e 2661 e73d
000001e0: 50df aebd 4e8d 90bd 9c47 253e 641f 0c3e
000001f0: af4c 083d 8fa6 4ebd 29da c3bd 0886 873d
00000200: 164f db3d 934b 233e ae00 683d e610 88be
00000210: a581 cf3d f325 b0bd da3d 393e 2e26 19be
00000220: 3f63 dbbd 1659 47bd 4325 373e 9f84 033d
00000230: 1af8 78bd 6d78 e3bd 92e0 463d 606e afbb
00000240: 0948 afbc aa03 e2bd 35c2 693d 363f bebc
00000250: 2145 3f3a 1d62 ff3d 7640 00be bc4b 19be
00000260: d0bd d53d 547a 4a3d f6ae 17bd b1dd d5bc
00000270: 49dc b5bc ed24 cbbc 85f9 f8bd 8906 c03d
00000280: f0cc 05bc e1d0 a93c 9606 84bd 80c1 7c3d
00000290: 3036 6ebc 0528 b0bd e7cf 433c 79de e13d
000002a0: af8f 583d 5eb3 433c 2351 41bc 2ea8 8a3d
000002b0: 09e0 2abe aec2 3bbd 332e ca3d b9e7 a3bd
000002c0: ce87 d2bc 6259 0abe a1c0 113c 9356 193e
000002d0: c20b b93c d7a9 c0bc c1c5 29be f030 bfbd
000002e0: d695 4dbe a5fa f3bd e844 493e 9866 cc3d
000002f0: 0125 b83d dd91 0a3d ec53 38bd dc03 7c3d
00000300: e08a c63d ba0a 4cbd 5815 9c3d 10ac 52be
00000310: 4d72 1bbe eefd 23be 2f9c 0c3e 4ce0 9ebd
00000320: 3418 9bbd 3065 4dbd ac47 833d 6a51 1dbd
00000330: 9bfe 9e3b 8d15 debb 193b bb3c 357b 333d
00000340: 9292 efbd 31fc 5dbd face 40bd 870a 3c3d
00000350: e773 0ebd d517 3fbd 6c9b 6b3e afb6 373d
00000360: 3a24 24bd 6dbb c63c e6bf 0cbe a96e 8abd
00000370: 3bb7 cbbd 808d 98bd 94ee 30be ec92 9b3d
00000380: 726d 28be b62f 1d3d 5165 63be b5fb 59be
00000390: b168 12be 4034 a8bc a8cf f4bd dd18 02be
000003a0: 6db9 dabd 8366 753a 846e 90bd 6008 233d
000003b0: 0848 81bd 695b ec3d a01d 60bd a87e b4bd
000003c0: 2405 3d3e ddca 1b3e 6784 27bc 1714 843d
000003d0: d994 38bc cfe3 f6bd 4e34 1ebe c9e7 8f3d
000003e0: 84e4 9b3d b38d 2a3c f5be d7bc 9933 9cbd
000003f0: 56ce f5bd 1846 e03c 9b9f 53be a87c d33e
0.12276287 -0.19206205 -0.058067184 0.17889205 -0.14786822 -0.0133222025 0.075631954 -0.002657012
-0.058616925 -0.096790716 -0.056320753 -0.07313324 0.047672972 0.05167102 0.01711685 0.16141851
0.004320885 -0.062829815 0.10756636 0.046809264 -0.1544525 0.0076502454 0.014359243 -0.16400278
-0.13923377 0.13841757 0.12828413 0.022202522 -0.15090942 -0.0066133947 0.17026234 0.1500757
-0.11690686 0.0935956 -0.048809987 -0.063546516 -0.043059386 -0.10480928 -0.006193719 -0.025338238
0.010592088 0.069500096 -0.09453231 -0.04359374 0.03091464 -0.0509264 -0.20884717 0.004905175
-0.16673121 0.21045752 0.1958087 0.029949894 0.014231051 -0.1424969 -0.047630507 -0.07944801
-0.12834753 0.081811056 0.028638884 0.005226989 0.06265496 0.033693105 0.097323604 0.05931039
0.06659154 -0.10605161 0.084861375 0.09258318 0.12074656 -0.055791244 0.02637058 -0.11062837
-0.14110936 0.17744935 0.071736686 -0.1829615 0.0028334255 0.020198366 -0.10894933 0.05771314
0.033362243 0.13869645 -0.030543888 0.0770717 0.051878028 -0.11562535 0.19404463 -0.14625102
0.019985575 -0.11168089 -0.105360724 -0.1183055 -0.023050489 -0.04808207 0.13010325 -0.15058234
0.0046145944 0.047566738 -0.07378194 0.056229804 -0.22128202 -0.060446255 0.043001324 0.19551757
0.012275603 -0.18630019 -0.069065504 -0.13760301 -0.01100077 -0.0017378205 0.044008132 -0.07343726
0.054251827 0.13861151 -0.22324888 -0.0745158 0.0661786 0.24820009 0.15859947 0.112978265
-0.08538687 -0.07058202 0.16140598 0.1368385 0.033276256 -0.05045181 -0.09563095 0.06617361
0.10708444 0.15946798 0.056641273 -0.26575392 0.101321496 -0.08600988 0.18090001 -0.1495597
-0.10712289 -0.048668943 0.17885308 0.0321089 -0.060783483 -0.11106954 0.04855401 -0.005353734
-0.021396654 -0.11035855 0.057069976 -0.0232235 0.0007296373 0.124698855 -0.1252459 -0.14970297
0.104365945 0.049433067 -0.03703209 -0.026106687 -0.022199767 -0.024797881 -0.12156967 0.093762465
-0.008166537 0.020729484 -0.06446569 0.061707973 -0.0145392865 -0.08601383 0.011951423 0.110287614
0.052871402 0.01194462 -0.01179913 0.06770359 -0.16687025 -0.045839958 0.09872093 -0.08003182
-0.025699522 -0.1351066 0.008896024 0.14974432 0.022588614 -0.023518486 -0.16579343 -0.09335506
-0.20076689 -0.11913041 0.19655192 0.09980506 0.08991433 0.033830512 -0.04500191 0.061527118
0.09694457 -0.049814917 0.076212585 -0.20573449 -0.15180321 -0.16014835 0.13731454 -0.07757625
-0.07572976 -0.050145328 0.06410155 -0.03840772 0.0048521287 -0.0067774714 0.022855328 0.04381867
-0.11697878 -0.054195587 -0.04707239 0.045908477 -0.0347785 -0.046653587 0.23008507 0.044851955
-0.04007361 0.024259293 -0.13745078 -0.06759388 -0.09947058 -0.07448864 -0.1727851 0.075963825
-0.16448 0.03837558 -0.22206618 -0.21287425 -0.14297749 -0.020532727 -0.1195367 -0.12704797
-0.106798984 0.0009361284 -0.07052329 0.03980291 -0.06312567 0.115408726 -0.054715753 -0.0881322
0.18458992 0.15214105 -0.010224438 0.06449144 -0.011265957 -0.1205517 -0.1544964 0.070266314
0.07611945 0.01040976 -0.026336173 -0.07627029 -0.12002246 0.027377173 -0.20666353 0.41306043

adk1.ADKGenerator.spatial_branch.2.bias f4 [9]
00000000: e68d 8cbd e323 e33d 31e4 09be cdd9 6abd
00000010: 70ed 55bd 4af1 b13d 9e07 f63d 501d 4dbc
00000020: 63aa 9b3a
-0.068630025 0.11090829 -0.13465954 -0.057336617 -0.05222839 0.086886 0.120131716 -0.012519196
0.0011876341

adk1.ADKGenerator.spatial_branch.4.weight f4 [9, 9, 3, 3]
00000000: 749e 31bd e5d2 cebd 8142 78bc 8ab5 3abd
00000010: da5c 823d 9016 26bd 7d1e 7c3d 15c3 acbd
00000020: ba04 3abd 198a 053d 59bf c93d 8e55 e4bd
00000030: 9492 83bd 2e0b 69bc d446 ab3d 65be b63c
00000040: 756e ee3d 67cd 6fbe 6d65 41bd e17c 063d
00000050: 3f07 de3d 2aff f4bd 0361 b53d 8a00 fd3d
00000060: 796f 64bd 0a59 37bd 58e4 bc3d 837f 723d
00000070: 31bb 9f3d 5a15 09be 1821 90bd 6686 bb3c
00000080: 771f 0bbd 94c1 c8bd fc8c edbd c35d a8bd
00000090: bd32 dbbd 21f8 91bb 53ed a4bd fb92 c13c
000000a0: b721 393e ae82 0ebb f2de b53c 7317 ec3d
000000b0: 3dd8 033d a8b6 363d 3b90 95bc d4b5 ce3d
000000c0: 398e 9cbd 070f 1ebd 0042 303d 0a31 98bc
000000d0: bf8d b63d 0a34 86bd 69dd bdbc 71b5 963d
000000e0: d3b7 72bd bde9 fdbc 7337 053e 4013 ff3a
000000f0: ce37 853d ade8 69bd 95a1 f13c 721d b0bd
00000100: f01e dfbc c9fa 5fbe dc3d 7b3d 8a6a 513d
00000110: 4fcc 29be 7a4a ec3d 6ab7 5a3c f571 4fbd
00000120: 544f 10bd 76fc f8bd 55bd 943d a7c8 dc3b
00000130: eeba 0bbe c50b 0fbe 209e 243d 7b68 8c3d
00000140: 5f39 1b3e 3983 18bd 9b26 e63c d677 d83d
00000150: 1321 84bd c4b9 573d 614f d93c cd81 64bd
00000160: e61d 0c3e 3596 403d a485 2d3e 9399 4f3e
00000170: 1271 c3bd dd25 c83d 37a5 633b 8e0a 2c3d
00000180: a25e e13d b0fc 65bc 7c9c dcbd 2cee 103e
00000190: 24db 01bc 4f11 e53d ce08 213e 8fa2 0c3e
000001a0: 7fea 173e 620c 613d 68e3 253e 3d5c 563c
000001b0: 8ff0 5cbd c142 e43d 0b99 963d 9df8 a13d
000001c0: 0842 d63d 56b5 573d a3d0 173e 7b92 f73d
000001d0: 4d00 0f3e ef90 583d b92c 4dbd a9b6 9f3d
000001e0: 7d26 aebd 45c2 0e3c a415 79bc de15 463d
000001f0: 1059 b03d f953 283e 5676 c5bb 345f 863d
00000200: 5584 323d dc2c 91bd cee5 19be c09f 24be
00000210: 6bd6 88bd 8843 233d a5cf 89bd 4518 3cbb
00000220: 0092 3dbe c21d 3cbe 76f5 dcbd c87f febd
00000230: 311b e63d a166 99bd a8c7 cfbd c96f c8bc
00000240: 6de8 e73d 5977 4d3e 9a83 903e 7700 6b3e
00000250: a378 723d a358 1e3d 87c0 b33c ddce 47bc
00000260: 60a3 afbd 0e47 5a3d 23a2 c5bc 66c0 f7bd
00000270: 3d34 e2bd 6437 c43d 35e0 763c 1619 19bc
00000280: 4a43 b8bc 9bf3 dfbd 2243 91bd 6d3a a0bd
00000290: 85ef 1fbe e4ee bcbd 3ab6 83bd 6a3d 3cbe
000002a0: ed76 eebd b3f8 09be 66c7 1bbe 5ddb cfbd
000002b0: cd95 f2bc 8a97 fb3b f19c 113d 41d3 74be
000002c0: f77e 7a3b fc64 f1bd 8e37 ad3d 767a e53d
000002d0: f58a ba3c 7a56 403c 0a32 6cbc 44fe 1cbe
000002e0: d874 583d 3c0e c23d ea43 8bbe 7a7a 93bd
000002f0: 7c77 f2bc bcd8 123d ca19 27bd 487b 073e
00000300: 7a3f 153d ea87 76be 5f2d 93bc b016 4abb
00000310: 8b75 623d 6fb7 8c3d 5b8d ce3d c1bc 433d
00000320: 5646 033e eea3 f63d e0ef 2c3e 7a1f 87bb
00000330: 6056 863d 6e77 51be 8746 35be c7da 743c
00000340: c8c2 16be 22e2 75bd 9648 f1bd 6aa5 30be
00000350: 58af 8abd eec2 863d 4125 a4bd 9fef d73b
00000360: da25 a13c 0aea 27bd acb7 953d c9b2 bcbc
00000370: dcaa bfbd f305 ba3d 7ed8 67bd df42 2a3e
00000380: 48ca a43d 9ba0 123d dae5 773c 04bb 51bd
00000390: 9ea6 c33d 016c a3bd 64ef cd3c eeca a33d
000003a0: 9ece fa3d e099 31bd b1b2 8b3d 34af 7f3d
000003b0: 77a4 23bd 18a8 95bb 459b b23d 9316 f8bc
000003c0: d37a f9bd 333d 81bd 98ff 36bc 61ff 37bd
000003d0: 3144 393b 08b5 a1bd 3972 2abe 6530 53bd
000003e0: 694f 75bd cc8c 9fbd 0b04 44bd 5d06 21bd
000003f0: 465b 833e 0582 c9bd a068 87bd 2ec6 22bd
-0.043364003 -0.10098819 -0.0151525745 -0.045583285 0.06365366 -0.04054886 0.061552513 -0.084356464
-0.045414664 0.032602403 0.0985095 -0.11149131 -0.06424442 -0.014223857 0.08363119 0.022307584
0.11642162 -0.23418199 -0.047215868 0.032833938 0.10841226 -0.11962731 0.08856394 0.123536184
-0.05577037 -0.04476265 0.092232406 0.059203636 0.07799376 -0.13387051 -0.07037562 0.022891235
-0.033965554 -0.09802547 -0.11599156 -0.08221009 -0.10703037 -0.004454628 -0.080530785 0.023629656
0.18079267 -0.0021745372 0.022201035 0.1152791 0.032188643 0.04460779 -0.018257251 0.10093275
-0.07644314 -0.03858855 0.043031693 -0.018578071 0.08913755 -0.065528944 -0.023176866 0.07358826
-0.05925734 -0.030995244 0.13009433 0.0019460693 0.065047845 -0.057106663 0.029495994 -0.08599366
-0.027236432 -0.2187301 0.06133829 0.051126994 -0.16581844 0.11537643 0.013349393 -0.050645787
-0.035231903 -0.12157528 0.07262675 0.006737787 -0.13645527 -0.13969333 0.040189862 0.068558656
0.15158604 -0.03723452 0.02809458 0.10569732 -0.06451621 0.052667394 0.026527109 -0.05578785
0.1368328 0.04701825 0.16945511 0.20273428 -0.09543051 0.09772847 0.0034735927 0.042002253
0.11004378 -0.014037296 -0.107720345 0.14153355 -0.007925782 0.11184942 0.15726015 0.13733886
0.14835547 0.05494345 0.1620003 0.013083515 -0.053940352 0.11145545 0.073534094 0.07908747
0.10461813 0.05266317 0.14825682 0.12088486 0.13964958 0.052872594 -0.05009148 0.077985115
-0.08503435 0.00871331 -0.015202913 0.048360698 0.08610737 0.16438283 -0.0060260696 0.06561127
0.043583233 -0.07088634 -0.1502907 -0.16076565 -0.06681522 0.039859325 -0.06729058 -0.002870099
-0.18512726 -0.18370727 -0.107890055 -0.12426716 0.11235655 -0.07490278 -0.10145503 -0.024467366
0.113236286 0.20065059 0.28225404 0.22949396 0.05919708 0.03865875 0.02194239 -0.012195316
-0.08576083 0.05329042 -0.024125164 -0.12097244 -0.1104512 0.095808774 0.015068104 -0.00934436
-0.022493023 -0.10935136 -0.07092883 -0.07823644 -0.15618713 -0.09225252 -0.06431241 -0.18382803
-0.11643777 -0.13473777 -0.15212783 -0.10149262 -0.029612446 0.007677977 0.03555006 -0.23908712
0.003822265 -0.11786839 0.08457862 0.11204998 0.022771338 0.011739368 -0.014416227 -0.1533137
0.052845806 0.09475371 -0.27200252 -0.07201095 -0.02959799 0.035851225 -0.04079608 0.13230622
0.03643749 -0.24075285 -0.01796597 -0.0030836277 0.05528788 0.06870925 0.10085555 0.04778743
0.128198 0.12042986 0.1688838 -0.0041236253 0.065594435 -0.20455715 -0.17702685 0.014944739
-0.1472274 -0.06003011 -0.11781423 -0.172506 -0.067717254 0.06580149 -0.08014918 0.0065898444
0.01967137 -0.04099468 0.07310423 -0.02303447 -0.09358761 0.09083166 -0.056602947 0.16627072
0.080463946 0.035797697 0.0151304845 -0.051203743 0.09553264 -0.079795845 0.025138564 0.0799769
0.1224644 -0.043359637 0.06821192 0.062422946 -0.039951768 -0.0045671575 0.087210216 -0.030284202
-0.1218163 -0.06310501 -0.011169337 -0.044921283 0.0028269405 -0.07895857 -0.16645135 -0.051559824
-0.059890185 -0.07790527 -0.04785542 -0.03931271 0.25655574 -0.098392524 -0.066117525 -0.03973978

adk1.ADKGenerator.spatial_branch.4.bias f4 [9]
00000000: c19d d23d 86ed adbd 48f4 9c3d 6fb8 91bd
00000010: dc12 e63d 10b9 993d 72e8 e53d 262d 67bd
00000020: f651 e83b
0.102839954 -0.084925696 0.076637805 -0.07115256 0.11234066 0.07506001 0.11225976 -0.05643954
0.0070898486

adk1.ADKGenerator.spectral_branch.1.weight f4 [3, 60, 1, 1]
00000000: 9399 693e 76e4 6bbc 8bd0 d7bc 26fb 55bb
00000010: 75ba 42be ac1b 6cbd 75e2 363e 7935 fd3c
00000020: 156c 7bbd aa6a fa3e 54e2 373c df5b 58bd
00000030: 5cc8 30be 4144 d73b 9452 053e 54f8 1a3e
00000040: 1334 a9ba 5b07 b2be 3d15 0bbe d3be 04bd
00000050: 1475 5bbe 943e 1abe 8b6b 51bb 639e 013b
00000060: 1273 47bd e160 c3be 7d75 bc3c 77e1 60be
00000070: 464b 3cbd 3e60 fb3d 866b 00bd 7e54 713d
00000080: bfea dfbd 7926 0bbc a2d8 ae3d a95f 21be
00000090: f265 9b3c bbd0 1fbe 5387 d8bc 8eda a93e
000000a0: 269a bd3d b46f 28bd 61a8 de3e df22 04be
000000b0: 7673 403e 92ad 4bbe 55a4 c23c 0ed3 92be
000000c0: dd14 e73b b1bb 083c c1cc 063e fe4c 56bd
000000d0: 3526 013d a026 babd 5555 1bbc f08c 1bbc
000000e0: 421a 22bc 2eac 40bd 9395 393e 12c0 453e
000000f0: 96f0 4cbe b18c f4bd 5d78 9cbc fae7 33bd
00000100: e0ea d3bc 4884 9c3d 76bd 9fbd 30a8 e9bd
00000110: a0ac 29bd 2f16 2ebe 8870 e73d e3ee 64bd
00000120: 635b 3d3e e9ae bf3d f78e c53c b271 1cbd
00000130: bc64 1fbc 97d7 9fbd eb50 023d 873c 523d
00000140: 5ee3 5abd 1d2f 093c 7e0c 363d be36 52bd
00000150: a6da 7e3d 32a5 51bc 4ec8 ad3c abcc 3bbe
00000160: 7ef6 543c 5a37 e0bd f24b 103d 7395 81bd
00000170: 3573 2dbe d0b4 00be ab72 50be a75c f83d
00000180: 15a5 713d 2573 82bc b45f 773c a5ce bf3d
00000190: b7d2 233d c64c d6bd d4ef eabb 018d 833e
000001a0: e7f6 283e 0ba0 eebc 6404 953c 4869 2b3d
000001b0: 3bdf bd3d 42a2 b13c a6ec 29be 0081 1e3c
000001c0: c757 4dbc e965 9cbd a617 b83d 7435 49bb
000001d0: c7bd fdbc a197 993d 6ee0 9a3d 9da9 47be
000001e0: b392 a4bf 2c24 08bf 05a3 08bf ade2 1ebe
000001f0: 7e6a a1be 8414 023f da36 073f 61bf 103d
00000200: 3c56 33be 69e0 133e 6e8a a5bb bbce 61bc
00000210: de6b 82be 9a85 4d3d 1b0a 373d 6768 dfbe
00000220: 550a 703d e469 bbbe 0e6c 203d 380f 4c3d
00000230: b55d 053e a2aa 69be a0eb 0f3e a218 4bbd
00000240: 3672 62bd 132e 0cbf 7adc 76bd e4d5 0bbe
00000250: 6fd4 6bbd ef3d 1e3e 6868 713e fcf9 cd3c
00000260: 87fd bcbe 0e5f 92bd da2e 1cbf 6914 bc3e
00000270: 6bba ee3d c611 1e3b d652 41be 69b4 ad3e
00000280: 45b1 56bd bb9b d0bd cb27 943d 22ee 5abe
00000290: 6ca8 4d3e a0e1 c3bc 5661 0a3f 5244 1dbe
000002a0: 34c7 013d c284 90bc 5bc3 b43e 1d49 f6be
000002b0: 6d6b 9dbd 86d0 cfbe 3e5a 85bd 95c4 6a3d
000002c0: c7cd e4bc e7ad 433d a919 bb3e 664e 9a3e
0.2281249 -0.014397731 -0.026344558 -0.0032650917 -0.1901644 -0.057643577 0.17859824 0.030909287
-0.061382372 0.48909503 0.011223394 -0.05282199 -0.17263931 0.006569416 0.13019782 0.15133792
-0.0012909196 -0.34771237 -0.1358232 -0.032408547 -0.2143138 -0.15062934 -0.003195497 0.0019778244
-0.048693724 -0.3815985 0.023005242 -0.21961008 -0.045970224 0.12274216 -0.031352542 0.05891847
-0.10933446 -0.008493059 0.08537413 -0.15759148 0.01896951 -0.15606968 -0.026431715 0.33174556
0.09257917 -0.041122153 0.43487838 -0.12903927 0.18794045 -0.1989043 0.02376 -0.28676647
0.0070520476 0.00834553 0.13164045 -0.05231952 0.031530578 -0.090893984 -0.009480794 -0.009494051
-0.009893956 -0.047039203 0.18123464 0.1931155 -0.20013651 -0.11940897 -0.019100362 -0.043922402
-0.025868833 0.07642418 -0.07799809 -0.11409032 -0.041424394 -0.1700065 0.113007605 -0.055891883
0.18491893 0.09359533 0.024116023 -0.038194366 -0.009728607 -0.078047924 0.03181545 0.051327255
-0.05343949 0.008373049 0.044445507 -0.051321737 0.06222024 -0.012795733 0.021213677 -0.18339793
0.012998221 -0.109480575 0.035228677 -0.06327333 -0.16938479 -0.12568974 -0.20356242 0.12127047
0.058995325 -0.015924046 0.015098501 0.09365586 0.039995875 -0.10463862 -0.007169703 0.25693515
0.16500436 -0.029129049 0.01819057 0.04184845 0.092710935 0.021683816 -0.1659418 0.009674311
-0.012533135 -0.07636625 0.089888856 -0.0030702027 -0.030974282 0.07499624 0.07562338 -0.19498296
-1.2857269 -0.53180194 -0.5337375 -0.15516157 -0.3152656 0.50812554 0.5281807 0.035338763
-0.17513365 0.14441074 -0.0050519025 -0.013782199 -0.2547292 0.05017624 0.04468737 -0.4363434
0.058603603 -0.36604226 0.03916555 0.0498192 0.13024028 -0.22818998 0.14054728 -0.04958404
-0.0552847 -0.54757804 -0.060268857 -0.13655812 -0.05757564 0.15453313 0.23574984 0.025143616
-0.36912176 -0.071470365 -0.6100899 0.36734322 0.1165665 0.002411948 -0.18879256 0.33926705
-0.05241515 -0.10185953 0.072341524 -0.21379903 0.20083779 -0.023911297 0.5405477 -0.15358093
0.031684116 -0.017641429 0.35305294 -0.48102656 -0.076865055 -0.40588778 -0.06511353 0.05731638
-0.027930154 0.047773268 0.36543015 0.30137938

adk1.ADKGenerator.spectral_branch.1.bias f4 [3]
00000000: 7052 20be d0c7 643e a133 0cbe
-0.15656447 0.22341847 -0.1369157
