pancollection/models/ADKNet/ADKNet_for_pansharpening/Weights/ADKNet4pansharpening.pth (torch, 296799 bytes, 101 tensors)

deconv.weight f4 [8, 8, 8, 8]
0	0xbefeed93	-0.4979063
1	0x3e33da68	0.17563784
2	0xbe2c5e0c	-0.16832751
3	0x3eec1062	0.4610625
4	0xbe6c43c4	-0.23072726
5	0x3d77dd03	0.060513508
6	0xbd5d9260	-0.054094672
7	0xbe9fe8b9	-0.3123224
8	0xbdd0bff0	-0.10192859
9	0x3d36d759	0.044638965
10	0x3cb7722e	0.022393312
11	0x3e8d7666	0.27629393
12	0xbe1af6ce	-0.15133211
13	0x3c591d5d	0.01325163
14	0x3d6c407f	0.057678696
15	0x3e2529fb	0.16129296
16	0x3cd5f6b7	0.02611862
17	0x3d0a280f	0.03372961
18	0xbebbc23f	-0.36671636
19	0xbe5d9003	-0.21636967
20	0xbf266129	-0.64992005
21	0x3b9e8227	0.0048372927
22	0x3cee9f7f	0.029128788
23	0xbdaae1d2	-0.08343853
24	0xbd834461	-0.064095266
25	0xbe4c729b	-0.19965594
26	0xbf39652e	-0.7242001
27	0xbef96d55	-0.48716226
28	0xbf272284	-0.6528704
29	0xbf1f0449	-0.62115914
30	0xbef5f4fc	-0.4803847
31	0x3decdb3e	0.11565255
32	0x3e21587b	0.15756409
33	0xbf0469e1	-0.5172406
34	0xbf48d265	-0.78446037
35	0xbf69d7d5	-0.9134496
36	0xbf764bb9	-0.96209294
37	0xbfbf7196	-1.4956539
38	0xbebb1ac1	-0.3654385
39	0x3f0c4a90	0.54801273
40	0x3e9894d3	0.29801044
41	0x3d8cb9cc	0.068713754
42	0xbe0c14d8	-0.13679826
43	0xbf275991	-0.6537104
44	0xbefa1987	-0.488476
45	0xbf1d4e9e	-0.61448085
46	0xbeee423b	-0.46534905
47	0xbd833e0b	-0.06408318
48	0x3e87880b	0.2647098
49	0x3e8e8a86	0.2784006
50	0xbf272837	-0.6529574
51	0xbdf518f0	-0.11967647
52	0xbf610ecd	-0.8791321
53	0xbf5d89f9	-0.86538655
54	0xbf0fa1c0	-0.56106186
55	0x3e6b1071	0.2295549
56	0xbce15208	-0.027504936
57	0x3f26cfc0	0.6516075
58	0x3f16bccc	0.5888183
59	0x3db606ad	0.08887992
60	0xbe6d79e5	-0.2319103
61	0xbe05215a	-0.13001004
62	0x3ef0abc1	0.47006038
63	0xbdd3d157	-0.10342663
64	0x3ebaac07	0.3645937
65	0x3e91151d	0.2833642
66	0xbecd9ea2	-0.4016009
67	0x3dc9dda9	0.098567314
68	0xbf02cc40	-0.5109291
69	0xbe3d6713	-0.18496351
70	0xbf0701f2	-0.52737343
71	0x3c9deb10	0.019277126
72	0xbdeed078	-0.11660856
73	0xbe320a5f	-0.17386769
74	0x3de3a608	0.11115652
75	0x3d1621a1	0.036653165
76	0xbe4712cd	-0.19440766
77	0xbe297f7a	-0.16552535
78	0xbd31e0af	-0.043427166
79	0x3e581898	0.21103132
80	0x3da16ae6	0.078817174
81	0x3e2e9b7c	0.170515
82	0xbb8fb82b	-0.004385968
83	0x3ef70ddf	0.4825277
84	0x3f2f8fed	0.6857899
85	0x3f8e04d5	1.1095225
86	0x3f17d77f	0.59313196
87	0x3ebf408d	0.37353936
88	0x3ea38374	0.31936228
89	0x3f3aca46	0.72964895
90	0x3fae8ff3	1.363768
91	0x3f8b083f	1.0861892
92	0x3f990492	1.195452
93	0x3f9aa9f3	1.2083114
94	0x3fa60dcb	1.2972959
95	0x3e81162d	0.2521223
96	0x3d7316dd	0.059347976
97	0x3f0ffc72	0.56244576
98	0xbc8a864d	-0.016909743
99	0x3fd4ffe3	1.664059
100	0x3fd4a348	1.661233
101	0x3fca6c26	1.5814254
102	0x3ec832bc	0.39101207
103	0x3e56e53e	0.20985886
104	0xbf3af424	-0.7302878
105	0x3f19af80	0.60033417
106	0x3fa04af1	1.252287
107	0x3fcf7a53	1.6209205
108	0x3f74ed34	0.95674443
109	0x3fab2643	1.3371052
110	0x3eeba5a4	0.4602481
111	0x3d49a91f	0.049233552
112	0x3d3c72d4	0.046007946
113	0xbacd315d	-0.001565497
114	0x3d4fd0dc	0.050736293
115	0x3f36ab7c	0.71355414
116	0x3f1aba65	0.60440665
117	0x3f6f775c	0.935415
118	0x3e32bfa0	0.17455912
119	0xbe04fa14	-0.12986022
120	0x3b36f649	0.0027917793
121	0x3e9859ff	0.29756162
122	0x3e9e31c8	0.30897355
123	0xbccab799	-0.02474575
124	0x3e527bf2	0.20555094
125	0x3f08047e	0.53131855
126	0x3ed56a80	0.41682816
127	0x3e521597	0.20516048
128	0xbe529988	-0.2056638
129	0xbec26151	-0.37964872
130	0x3cbc2dfa	0.022971142
131	0x3e45a6ac	0.19301862
132	0xbd751f37	-0.059844222
133	0xbe94d87c	-0.29071414
134	0x3ce93782	0.028468851
135	0x3ce7ce96	0.02829675
136	0xbeb5acfa	-0.35483533
137	0xbd3cbb4d	-0.04607706
138	0x3e629396	0.22126612
139	0x3e3f2ac7	0.18668662
140	0xbe889811	-0.26678517
141	0xbe252166	-0.16126022
142	0xbe2647e6	-0.16238365
143	0x3dc26cca	0.09493406
144	0xbe68e969	-0.22745289
145	0x3e417ce9	0.18895306
146	0xbd3037d8	-0.043022007
147	0x3dc15ef2	0.094419375
148	0xbe8cc7e0	-0.27496243
149	0x3e38c0bc	0.18042272
150	0xbe9d9576	-0.30778092
151	0x3e46f455	0.19429143
152	0xbd90d5b3	-0.0707201
153	0xbdb72a7d	-0.08943651
154	0x3d3042bc	0.043032393
155	0xbf44ad26	-0.76826704
156	0x3db99af1	0.09062756
157	0xbe21aa7b	-0.1578769
158	0x3e19c931	0.15018155
159	0xbdaf9031	-0.08572424
160	0xbec000d1	-0.37500623
161	0xbe019b60	-0.12656927
162	0xbdf607a9	-0.1201318
163	0x3da7346b	0.08164295
164	0xbdcbf9da	-0.09959765
165	0xbeb4d09e	-0.35315412
166	0xbd20c4db	-0.039250236
167	0x3df2c3c1	0.11853743
168	0xbf0c24a1	-0.5474339
169	0xbd91f4a0	-0.07126737
170	0xbe0512ce	-0.12995455
171	0x3e67e28a	0.22645012
172	0xbef9685c	-0.48712432
173	0x3ebe64ba	0.37186223
174	0x3e16a319	0.14710654
175	0x3e6318ef	0.2217748
176	0xbe4601b0	-0.19336581
177	0x3d9c85a1	0.07642675
178	0x3d5cda5e	0.05391919
179	0x3dd56539	0.10419697
180	0xbeddb096	-0.43298787
181	0x3e139706	0.1441308
182	0xbc96757b	-0.018366566
183	0x3cd98253	0.026551401
184	0x3d90d629	0.07072098
185	0x3e87f784	0.26556027
186	0x3e7bcc9c	0.24589771
187	0xbf23d586	-0.63997686
188	0x3db602a0	0.088872194
189	0x3c6d03f5	0.014466275
190	0x3e8582d3	0.26076373
191	0xbe0a6444	-0.13514811
192	0x3e5435a8	0.20723593
193	0x3de55a73	0.111988924
194	0x3e58522e	0.21125099
195	0xbe84c62b	-0.2593244
196	0xbe6580ef	-0.22412466
197	0xbe020f3f	-0.12701128
198	0xbe344b48	-0.17606843
199	0xbd252cfc	-0.040326104
200	0xbdbe9f9e	-0.09307788
201	0xbee8143b	-0.45327935
202	0x3f4967dd	0.7867411
203	0x3e262155	0.16223653
204	0xbeb934ed	-0.36173192
205	0xbebb52f2	-0.3658672
206	0x3e34c1f3	0.17652111
207	0x3e0cf7a4	0.13766342
208	0x3eb64382	0.3559838
209	0x3ed562b1	0.41676858
210	0x3bcbd41b	0.0062203533
211	0xbb896e90	-0.0041940883
212	0xbc7915e3	-0.015202972
213	0xbe68adc0	-0.2272253
214	0xbe6de6a9	-0.23232521
215	0xbe408f90	-0.18804765
216	0x3ef57760	0.47942638
217	0x3dbebef6	0.09313767
218	0xbeab4f53	-0.33458957
219	0xbeb56025	-0.35424915
220	0xbe279155	-0.16364034
221	0xbe264149	-0.16235842
222	0xbe4758ce	-0.1946747
223	0xbf1f745c	-0.62286925
224	0x3e8e3341	0.2777348
225	0xbe519476	-0.2046679
226	0x3db91f54	0.090391785
227	0xbf09e1a5	-0.5385993
228	0xbe97288c	-0.29523122
229	0x3d745f00	0.05966091
230	0xbc54b4a3	-0.01298252
231	0xbf486434	-0.782779
232	0x3dc774a0	0.09739041
233	0xbefcd204	-0.4937898
234	0xbf427048	-0.7595258
235	0x3eb39a52	0.35078675
236	0xbedf322b	-0.43592963
237	0x3e20d5ef	0.15706609
238	0x3f1c92e2	0.61161625
239	0xbe64a889	-0.22329916
240	0x3e92e4ef	0.28690287
241	0xbe48f670	-0.19625258
242	0xbf0d8ef2	-0.5529624
243	0xbed890dc	-0.4229802
244	0x3d2fb36a	0.042895712
245	0xbe8e33f2	-0.27774006
246	0xbd198918	-0.03748426
247	0xbeb0a08c	-0.34497488
248	0xbde93fee	-0.11389147
249	0xbe6ba558	-0.23012292
250	0xbe0fd50f	-0.14046119
251	0xbf0e01ea	-0.5547167
252	0xbd62787e	-0.05529069
253	0x3dd6ff5e	0.10497926
254	0x3edb4c1f	0.42831513
255	0x3dbaf0f3	0.09127989

deconv.bias f4 [8]
0	0x3dadf3b9	0.08493752
1	0xbe242e9b	-0.16033404
2	0x3d8d398a	0.0689574
3	0x3bc3b788	0.0059728064
4	0xbc3d4ec5	-0.011554425
5	0x3d75b697	0.059988584
6	0x3d5fcafa	0.054636933
7	0x3d6e66af	0.058203395

upsample.weight f4 [8, 8, 8, 8]
0	0x3c39feb5	0.011352231
1	0xbcd59dc2	-0.026076201
2	0x3d9ca866	0.07649307
3	0xbbd53646	-0.006506714
4	0xbd546c3e	-0.05186104
5	0xbd0157b3	-0.031577777
6	0xbe075b5d	-0.13218446
7	0xbd265fd0	-0.040618718
8	0xbd616178	-0.055024594
9	0xbd2abdd6	-0.041684948
10	0x3d9272b9	0.07150788
11	0x3ca10730	0.019656748
12	0x3ccce77d	0.025012726
13	0x3b5c6425	0.0033629027
14	0xbdc7da46	-0.09758429
15	0xbd2a07dd	-0.041511405
16	0x3d4992b0	0.049212158
17	0x3d82b62b	0.06382402
18	0x3efb5a21	0.490922
19	0x3f053173	0.5202858
20	0x3f0713d5	0.52764636
21	0x3f012d9e	0.5046023
22	0x3daa0e97	0.08303564
23	0x3d73fbe9	0.059566412
24	0xbbcd7937	-0.0062705535
25	0x3cbbc586	0.022921335
26	0x3efbca9b	0.49178013
27	0x3f0b5997	0.5443358
28	0x3f1b0bb1	0.60564715
29	0x3f12ede9	0.5739427
30	0x3dd7e94b	0.10542544
31	0x3d4d5995	0.05013426
32	0xbcdea707	-0.027179254
33	0x3c2a4867	0.010393239
34	0x3efca087	0.49341223
35	0x3f16c899	0.5889984
36	0x3f295926	0.66151655
37	0x3f238475	0.6387399
38	0x3e1a7251	0.15082671
39	0x3d3f38cb	0.04668502
40	0x3c9f766c	0.019465648
41	0x3c45ee4a	0.012080738
42	0x3efdc0e6	0.49561232
43	0x3f101361	0.5627957
44	0x3f1a1c2f	0.60199255
45	0x3f1dbd19	0.61616665
46	0x3dffefc2	0.12496902
47	0x3d68f9f5	0.056879003
48	0xbdc23361	-0.09482456
49	0xbdd2849b	-0.10279199
50	0x3d99f326	0.0751708
51	0x3d820c92	0.06350054
52	0x3dea0723	0.114271425
53	0x3e074f97	0.13213955
54	0xbd464320	-0.04840386
55	0xbd34ee27	-0.044172432
56	0xbd08b3f6	-0.03337475
57	0xbd5b629d	-0.05356084
58	0x3d916917	0.071001224
59	0x3d1e1897	0.03859767
60	0x3d07b1c3	0.03312851
61	0x3d6b622c	0.05746667
62	0xbd94ff7a	-0.07275291
63	0xbd177449	-0.036976133
64	0xbd1c96dc	-0.03822981
65	0xbd018917	-0.03162488
66	0x3cdab0e9	0.026695685
67	0x3d6e4538	0.05817148
68	0x3d95749e	0.072976336
69	0x3d899312	0.067175046
70	0x3c75ad55	0.014994939
71	0xbcaf733c	-0.021417253
72	0xbd5bb87d	-0.05364274
73	0xbd1f946d	-0.03895991
74	0xbd61dfac	-0.05514495
75	0xbd152343	-0.03641058
76	0xbc3eb98e	-0.011640919
77	0xbc379a7f	-0.011206268
78	0x3c185b78	0.009299152
79	0xbcced4d0	-0.025247961
80	0x3c010dc8	0.007876821
81	0xbd900044	-0.07031301
82	0xbe07125c	-0.13190597
83	0xbe433423	-0.19062857
84	0xbe574196	-0.21021113
85	0xbe13770c	-0.14400882
86	0xbda62560	-0.081125975
87	0xbbd89602	-0.006609679
88	0x3d3594d0	0.04433137
89	0xbd057b8d	-0.03258853
90	0xbe47850d	-0.19484349
91	0xbeaf8d18	-0.34287333
92	0xbec933d8	-0.39297366
93	0xbea8f634	-0.33000338
94	0xbe2ce9c7	-0.16886054
95	0xbc640a60	-0.013918489
96	0x3d50c38d	0.05096774
97	0xbd27d481	-0.040974144
98	0xbe845de3	-0.2585288
99	0xbeddb7ad	-0.43304196
100	0xbefe238e	-0.496365
101	0xbed5a3c1	-0.41726497
102	0xbe5554eb	-0.20833175
103	0xbccde0ca	-0.025131602
104	0x3d834ccf	0.064111345
105	0xbd3173bb	-0.04332326
106	0xbe3e70df	-0.18597744
107	0xbeb314a8	-0.34976697
108	0xbed51f98	-0.41625667
109	0xbea99713	-0.33123073
110	0xbe4bebec	-0.19914216
111	0xbc22c3bf	-0.009934365
112	0x3a972082	0.0011530074
113	0xbcbea046	-0.023269784
114	0xbdf804c6	-0.121102855
115	0xbe4ffb38	-0.20310676
116	0xbe651453	-0.22371034
117	0xbe400343	-0.18751244
118	0xbdc2d14c	-0.095125765
119	0xbcaf8e8b	-0.021430274
120	0xbcd713a0	-0.026254475
121	0xbd3d74bc	-0.046253905
122	0xbd7accce	-0.061230473
123	0xbd6f956d	-0.058492113
124	0xbd2c6628	-0.04208961
125	0xbc35d61a	-0.011098409
126	0xbbe1c122	-0.0068894783
127	0xbc50ea52	-0.012751179
128	0x3ac3abce	0.0014928521
129	0xbcfe4d85	-0.031042824
130	0x3a8a62df	0.001055803
131	0xbc8f03b8	-0.017457828
132	0xbcb644ee	-0.022249665
133	0xbc8e172b	-0.017345032
134	0xbd41bffc	-0.04730223
135	0xbca491c5	-0.02008904
136	0xbc8fcc8d	-0.017553592
137	0xbcdd4a86	-0.027013075
138	0xbd1c03cf	-0.03808957
139	0xbcd84df0	-0.026404351
140	0xbd5fafbe	-0.05461096
141	0xbcf119bf	-0.029431222
142	0xbce4295c	-0.027851753
143	0xbd4d4755	-0.050116856
144	0xbca0a536	-0.019610029
145	0xbd57f3ae	-0.052722625
146	0xbb9f3be7	-0.004859436
147	0xbbd5fc17	-0.0065302956
148	0x3ceb2694	0.028704919
149	0x3d47fe5b	0.048826557
150	0xbcc04d1a	-0.023474265
151	0xbbdf8ed0	-0.0068224445
152	0xbd17ae81	-0.037031654
153	0xbc903b8a	-0.017606515
154	0x3c57622e	0.013145966
155	0xbb9cf24d	-0.0047896267
156	0x3c1e31dd	0.009655443
157	0xbab10591	-0.0013505687
158	0xbd3728ad	-0.044716526
159	0xbd280415	-0.041019518
160	0xbd56f1bb	-0.052476626
161	0xbd2b7f7f	-0.041869637
162	0xbce78ca0	-0.028265297
163	0xbd4ccd71	-0.05000061
164	0xbd761c4b	-0.060085576
165	0xbd454b06	-0.04816725
166	0xbd95bce1	-0.073114164
167	0xbd7163f3	-0.05893321
168	0xbd819454	-0.063271195
169	0xbd80f5c6	-0.062968776
170	0x3bc95576	0.006144221
171	0xbc692f61	-0.014232487
172	0x3c33ba1e	0.010969667
173	0x390b88d8	0.00013307051
174	0xbda49714	-0.08036628
175	0xbd1af427	-0.037830498
176	0xbd8883d5	-0.0666577
177	0xbd5862e0	-0.05282867
178	0xbd1f6086	-0.03891041
179	0xbd550a31	-0.052011672
180	0xbd8455d2	-0.064616814
181	0xbd6cebfd	-0.057842243
182	0xbd860c2d	-0.06545291
183	0xbd8198b2	-0.063279524
184	0xbcdfb9f3	-0.027310347
185	0xbd6ce337	-0.057833876
186	0xbd934f4d	-0.0719286
187	0xbd9e7f8d	-0.07739172
188	0xbd94a1c1	-0.072574146
189	0xbd2c6f75	-0.04209848
190	0xbd1bb5e8	-0.038015276
191	0xbca9764e	-0.020686295
192	0x3c6559c3	0.013998452
193	0xbcab3336	-0.020898443
194	0x3ca77b37	0.020444496
195	0x3cb6768c	0.022273324
196	0x3c06e1fe	0.008232592
197	0x3c9557d0	0.018230349
198	0xbc96b505	-0.018396864
199	0xbbb25444	-0.005442174
200	0xbbee8296	-0.0072787507
201	0x3c43be87	0.011947281
202	0x3d292df1	0.04130358
203	0x3d345c70	0.044033468
204	0x3d6a8dfc	0.057264313
205	0x3c760396	0.015015503
206	0xbb898162	-0.004196332
207	0x3c005552	0.007832842
208	0x3d2d8f76	0.042373143
209	0x3cc3707d	0.02385735
210	0x3dd477f9	0.103744455
211	0x3da872d3	0.08225026
212	0x3d7479e2	0.05968655
213	0x3d3a23a1	0.045444135
214	0xbd3f70cf	-0.046738442
215	0xba749a35	-0.000933084
216	0x3d2b58d1	0.04183275
217	0x3d5aa28e	0.05337768
218	0x3d9bdb39	0.07610173
219	0x3d3a0460	0.04541433
220	0x3d808732	0.062757865
221	0x3d157dbb	0.03649686
222	0x3b6a60ab	0.0035763185
223	0x3d28b6a9	0.041189823
224	0x3d264643	0.04059435
225	0x3dc4e0b0	0.09613168
226	0x3dd83e9a	0.10558815
227	0x3d376edf	0.04478347
228	0x3c8a06aa	0.01684888
229	0xbc76bd16	-0.01505973
230	0xbd34cec7	-0.04414251
231	0x3b8ddfcb	0.0043296567
232	0x3d4509e6	0.048105143
233	0x3d533ca1	0.051571492
234	0x3db7d8ee	0.08976923
235	0x3d783ae8	0.060603052
236	0xba8969d3	-0.0010483809
237	0x3bb13131	0.0054074754
238	0xbd5c601d	-0.0538026
239	0xbc853e8c	-0.016265176
240	0xbc9da571	-0.019243928
241	0x3c8d4276	0.017243605
242	0x3cdf7e0c	0.027281784
243	0x3d07f8db	0.03319631
244	0x3d0b0ffc	0.03395079
245	0x3c2f0138	0.010681443
246	0x39b953f5	0.00035348503
247	0xbc9a6976	-0.018849116
248	0xbbdff01c	-0.006834043
249	0x39bf8a54	0.0003653342
250	0x3d339119	0.043839548
251	0x3d04ffa5	0.032470364
252	0x3a7963db	0.0009513476
253	0x39ded7ad	0.0004250383
254	0xbd549142	-0.05189634
255	0xbd282e0a	-0.04105953

upsample.bias f4 [8]
0	0x3d0fc014	0.03509529
1	0x3d0719c0	0.03298354
2	0x3cbc2116	0.022964995
3	0x3c0927ea	0.008371333
4	0x3ca78744	0.020450242
5	0xbcc03637	-0.023463352
6	0xbc9074c8	-0.01763381
7	0xbc96b558	-0.018397018

adk1.ADKGenerator.spatial_branch.0.weight f4 [60, 1, 3, 3]
0	0xbf053a34	-0.52041936
1	0xbf3cdfe3	-0.73779124
2	0xbd3a0e56	-0.045423828
3	0x3ed3136a	0.4122575
4	0x3e48d150	0.19611096
5	0xbe36b8e6	-0.1784397
6	0x3f22a392	0.6353084
7	0x3f3cdf48	0.737782
8	0x3ed2edc2	0.4119702
9	0x3f453f3b	0.7704961
10	0xbe9f8b0c	-0.31160772
11	0xbee7515a	-0.45179254
12	0x3e221b97	0.15830837
13	0xbf29cc79	-0.66327626
14	0xbef30735	-0.47466436
15	0x3f0be6e7	0.54649204
16	0x3e985b5c	0.29757202
17	0xbead0a8a	-0.33797103
18	0xbda253f6	-0.079261705
19	0xbe45eb61	-0.19328071
20	0xbef6cef4	-0.48204768
21	0xbef40252	-0.4765802
22	0xbf2caefa	-0.67454493
23	0xbd5eb460	-0.054371238
24	0xbe215282	-0.1575413
25	0xbd6883cc	-0.056766316
26	0x3f4fc45f	0.81159014
27	0x3e32f22b	0.17475192
28	0xbe914b2b	-0.2837766
29	0x3d846e6e	0.06466375
30	0x3e16ab33	0.14713745
31	0xbf104412	-0.5635387
32	0x3eb1b6af	0.3470969
33	0x3e388377	0.180189
34	0xbe71e2bd	-0.2362165
35	0x3f0e1187	0.55495495
36	0x3dc83dfa	0.09777446
37	0x3f597b6f	0.8495397
38	0x3e552a7a	0.20816985
39	0x3cbebe87	0.02328421
40	0x3f127595	0.57210666
41	0x3cb49f52	0.022048626
42	0x3e58a023	0.21154837
43	0x3e239d40	0.15977955
44	0xbed91c0c	-0.4240421
45	0xbcfe3ea4	-0.031035729
46	0xbf33882c	-0.70129657
47	0xbe04f9e0	-0.12985945
48	0x3f006216	0.5014967
49	0xbf1437d5	-0.5789769
50	0xbeac70b5	-0.3367974
51	0xbeaa96db	-0.3331822
52	0xbf8e0f0c	-1.1098342
53	0xbee1c982	-0.4409905
54	0xbeea577b	-0.45769867
55	0xbf1dbf0c	-0.6161964
56	0xbf2d3349	-0.6765638
57	0xbf5214e3	-0.8206312
58	0xbf6c9578	-0.9241557
59	0xbfa380e6	-1.2773712
60	0x3d40fd1a	0.047116376
61	0xbf4ad9a9	-0.79238373
62	0xbe8c951f	-0.2745752
63	0x3f02422f	0.5088224
64	0xbedffa1b	-0.43745503
65	0x3d7cee80	0.06175089
66	0x3e852c3b	0.26010308
67	0xbf059f03	-0.5219576
68	0xbdfeac3c	-0.12435195
69	0x3e8fd96b	0.28095564
70	0xbf150bc9	-0.5822111
71	0x3d3c273d	0.045935858
72	0x3f075b43	0.5287363
73	0xbe20a884	-0.15689284
74	0xbf352feb	-0.7077624
75	0xbe6eb2b2	-0.23310354
76	0x3dc41160	0.095736265
77	0xbe87152e	-0.26383346
78	0x3f61f76c	0.8826816
79	0x3e253553	0.16133623
80	0x3e068643	0.13137154
81	0x3eb4288b	0.35187182
82	0xbe3cedcf	-0.18450092
83	0xbf5ae7ff	-0.8551025
84	0x3e3ffef9	0.18749608
85	0x3f0ab617	0.541841
86	0x3e750363	0.23927073
87	0xbf38e50c	-0.722245
88	0xbda9694d	-0.08272038
89	0xbddde798	-0.108351886
90	0xbecd7529	-0.4012845
91	0x3ea020b2	0.31274945
92	0x3e631cb1	0.22178914
93	0x3cc5360e	0.024073627
94	0x3e7a3382	0.24433711
95	0x3e97e01c	0.2966317
96	0xbf06571c	-0.5247667
97	0xbf0b22d3	-0.5435001
98	0xbe7003ca	-0.23438945
99	0xbf20beb9	-0.6279102
100	0x3ddb9a27	0.107227616
101	0x3d04607e	0.032318585
102	0xbe9d380d	-0.30706826
103	0xbe3f29f7	-0.18668352
104	0xbe82c5b7	-0.2554147
105	0x3e4d04d8	0.20021379
106	0x3d93429b	0.07190438
107	0xbf245796	-0.64196146
108	0x3eed8f98	0.46398616
109	0x3f2d2c7e	0.67646015
110	0x3e85b144	0.26111805
111	0x3ec96132	0.39331967
112	0x3e9f18b3	0.31073532
113	0xbe6d9981	-0.23203088
114	0x3ae8422b	0.0017719915
115	0x3c2f78c5	0.010709946
116	0xbe73c711	-0.23806407
117	0xbedf21ee	-0.43580574
118	0x3e6e93d6	0.23298582
119	0xbe2d8d46	-0.16948423
120	0xbe951991	-0.29121068
121	0x3f77a34a	0.96733534
122	0x3eeb1ac3	0.45918855
123	0xbefa4107	-0.48877737
124	0x3f874357	1.0567425
125	0x3f6e0df3	0.92990035
126	0x3d6b37a1	0.0574261
127	0xbe9597a0	-0.29217243
128	0xbd7db08e	-0.061935954
129	0x3f139763	0.5765287
130	0x3e9abd43	0.3022252
131	0x3e46ad34	0.19402009
132	0xbf347abe	-0.7049979
133	0xbf1c79a1	-0.6112309
134	0xbe8c85d4	-0.27445853
135	0x3e946913	0.28986415
136	0x3e707321	0.23481418
137	0x3db1b277	0.086766176
138	0x3c1095fe	0.008824823
139	0x3ddbd06a	0.10733111
140	0xbdbe1aea	-0.09282477
141	0xbf0105e6	-0.50399625
142	0xbd5b838e	-0.053592257
143	0x3ec1216c	0.3772081
144	0x3f428315	0.75981265
145	0x3f18756e	0.59554183
146	0xbd1ec4a1	-0.03876174
147	0xbe27749f	-0.16353081
148	0xbe9bd0da	-0.3043278
149	0xbf0b2196	-0.54348123
150	0xbc92237e	-0.01783919
151	0x3f3509bf	0.70717996
152	0x3d499564	0.049214736
153	0xbecab78c	-0.3959316
154	0x3ee6d59e	0.45084852
155	0xbdecd3ca	-0.11563833
156	0x3e94d06d	0.29065266
157	0x3f8c29b4	1.0950227
158	0x3e0bcb64	0.13651806
159	0x3cf31eea	0.029677827
160	0x3efcc848	0.49371552
161	0xbe542058	-0.20715463
162	0x3e49e257	0.19715248
163	0x3f43b860	0.7645321
164	0xbf19154e	-0.59798133
165	0xbed2c61b	-0.41166767
166	0x3f5b14fa	0.8557888
167	0xbe1dfa4f	-0.15427516
168	0x3e1a678a	0.1507856
169	0x3da48ecb	0.08035048
170	0xbe8b8aff	-0.27254483
171	0x3efcb92a	0.4936002
172	0x3ef883e3	0.48538122
173	0x3d51be24	0.051206723
174	0xbf278966	-0.6544403
175	0xbd141d1d	-0.036160577
176	0xbe422baf	-0.18961976
177	0xbe27976f	-0.16366361
178	0x3e07edfd	0.13274379
179	0xbe6252f4	-0.22101957
180	0x3ea052e9	0.31313255
181	0xbf03e3a9	-0.51519257
182	0x3d95cd96	0.07314603
183	0x3da7fb3c	0.08202216
184	0xbdf2778c	-0.11839208
185	0x3f2308de	0.63685405
186	0xbf600d59	-0.87520367
187	0xbf0945a9	-0.5362192
188	0x3df8ec0b	0.121543966
189	0xbf70994b	-0.93983907
190	0xbe9e7be6	-0.30953902
191	0x3e3551e4	0.1770702
192	0x3c4d4970	0.012529716
193	0x3ea0bdee	0.31394905
194	0xbf3dec16	-0.74188364
195	0x3e57a139	0.21057595
196	0x3d31bc19	0.043392275
197	0xbe1109cf	-0.14163898
198	0xbf249f0b	-0.6430518
199	0xbde3dd05	-0.111261405
200	0x3d5d8c85	0.054089088
201	0x3ee7ba43	0.45259294
202	0x3f470ea9	0.77756745
203	0x3f59b434	0.85040593
204	0xbdbae6c4	-0.09126046
205	0x3f39051c	0.7227342
206	0x3eb12851	0.3460107
207	0x3e09861d	0.13430066
208	0x3ca2d177	0.019875271
209	0x3e140064	0.14453274
210	0xbed0d4d0	-0.40787363
211	0xbe776f3a	-0.24163523
212	0xbd5b5aed	-0.05355351
213	0xbf806a90	-1.003252
214	0x3f13788d	0.5760582
215	0x3ed45d9c	0.41477668
216	0xbe7fe58b	-0.24989907
217	0x3e19d5d5	0.15022977
218	0x3f10f05f	0.5661678
219	0x3ea3b8b9	0.3197687
220	0xbe78c438	-0.24293602
221	0x3d909e90	0.070614934
222	0xbe8fa558	-0.28055835
223	0xbf16d903	-0.58924884
224	0x3ea0cdfb	0.3140715
225	0xbb715c48	-0.0036828686
226	0xbe394363	-0.18092112
227	0x3efe65ff	0.49687192
228	0xbe9effdb	-0.31054577
229	0xbe1676bb	-0.1469373
230	0x3e59b1a9	0.21259178
231	0xbdecfa62	-0.11571194
232	0x3d934332	0.07190551
233	0x3ea41e7a	0.32054502
234	0xbeea64d3	-0.45780048
235	0xbdaa062f	-0.08301961
236	0x3d341e0d	0.04397397
237	0x3e0d341f	0.13789414
238	0x3f4e647c	0.80622077
239	0x3f0dec47	0.55438656
240	0xbe1b2f92	-0.15154865
241	0xbea0765a	-0.31340295
242	0x3f5b2924	0.8560965
243	0x3f5560d8	0.83350897
244	0xbee14de6	-0.44004744
245	0x3eaf25ce	0.3420853
246	0xbe9b7394	-0.30361617
247	0xbf478164	-0.7793181
248	0xbf24f473	-0.644355
249	0xbeec8da8	-0.46201825
250	0xbf390b26	-0.72282636
251	0xbef4db34	-0.4782349
252	0xbeef9f87	-0.46801397
253	0xbf5ccc74	-0.8624947
254	0x3c472c0d	0.012156499
255	0x3f079449	0.5296064

adk1.ADKGenerator.spatial_branch.0.bias f4 [60]
0	0xbe6afd10	-0.22948098
1	0xbc86889b	-0.01642256
2	0x3e30f7a3	0.17281966
3	0xbdd20616	-0.10255067
4	0xbe580688	-0.21096241
5	0xbdbdf909	-0.09276015
6	0x3e91c774	0.28472483
7	0x3dea63d7	0.11444824
8	0xbe0bac85	-0.1364003
9	0x3e1c1fe8	0.15246546
10	0xbd805e6d	-0.0626801
11	0xbc07a181	-0.008278252
12	0xbe8deb6b	-0.27718672
13	0x3e0a3c73	0.13499622
14	0x3d47584e	0.0486682
15	0x3c8700ec	0.016479932
16	0x3d3ace1f	0.04560673
17	0xbe3443d8	-0.17604005
18	0x3c366d9b	0.01113453
19	0xbcb41746	-0.021983754
20	0x3d815dd1	0.06316722
21	0x3df10a69	0.11769564
22	0xbdf38b64	-0.11891821
23	0x3cfffdf1	0.031249018
24	0xbbe658f1	-0.0070296456
25	0xbd44d4ad	-0.048054386
26	0x3c96ec3e	0.018423196
27	0x3c64da6d	0.013968092
28	0x3d13a769	0.036048327
29	0xbb938d1c	-0.0045029055
30	0xbc5e3992	-0.0135635305
31	0x3a22a419	0.0006204262
32	0xb9cd6969	-0.00039179184
33	0x3d627ca3	0.055294644
34	0x3e13baac	0.14426678
35	0xbc2e0f99	-0.010623836
36	0x3e24efa2	0.16107038
37	0x3e227fc7	0.15869056
38	0x3c310494	0.010804314
39	0x3cfab86b	0.030605515
40	0x3cae47ed	0.021274531
41	0x3ce463c0	0.027879596
42	0xbcf47e8b	-0.029845497
43	0xbb771205	-0.003769995
44	0x3aa66416	0.0012694623
45	0x3ec3b02d	0.3822035
46	0xbb4f9478	-0.0031674188
47	0xbdb1019f	-0.08642887
48	0xbd1cf4ba	-0.038319327
49	0xbebf1fe2	-0.37329012
50	0x3bd5e2ce	0.0065272814
51	0x3df66247	0.12030464
52	0xbe11af84	-0.1422711
53	0xbdb60834	-0.08888283
54	0x3acc46e9	0.0015585098
55	0x3e566781	0.20937921
56	0xbd70ffbb	-0.058837634
57	0xbc3e7222	-0.011623891
58	0xbe1ead39	-0.15495767
59	0x3e9a5434	0.30142367

adk1.ADKGenerator.spatial_branch.1.weight f4 [9, 60, 1, 1]
0	0xbd334bab	-0.043773334
1	0x3ec82dd1	0.39097455
2	0x3d14e697	0.03635272
3	0x3e7ad27c	0.24494356
4	0x3d2a95c8	0.04164675
5	0xbda1d21a	-0.07901402
6	0xbf3f09b6	-0.7462419
7	0xbd64b49f	-0.055836316
8	0x3de10f91	0.10989297
9	0x3ca584e9	0.020204978
10	0x3d8a58ff	0.06755256
11	0x3d420e14	0.047376707
12	0x3cb0f154	0.02159945
13	0xbe07d29d	-0.13263936
14	0xbd7fedbb	-0.062482577
15	0x3d265d2b	0.040616196
16	0xbde7a4db	-0.113107406
17	0x3e990691	0.29887822
18	0xbe01ea2c	-0.12686986
19	0x3e0118ae	0.12607071
20	0xbe08c543	-0.133565
21	0xbe3a1cdb	-0.1817507
22	0x3e58aa30	0.21158671
23	0x3e85dfb5	0.26147237
24	0xbee7f573	-0.4530445
25	0x3d45570f	0.04817873
26	0xbec0b553	-0.3763834
27	0xbb7ca243	-0.0038548864
28	0x3d93aceb	0.07210716
29	0xbc841c50	-0.016126782
30	0x3d527f1a	0.051390745
31	0xbf040f6e	-0.51586044
32	0xbc104add	-0.008806911
33	0x3da386fb	0.0798473
34	0xbebf1fe4	-0.37329018
35	0x3ed2a16f	0.4113879
36	0xbcc3c337	-0.023896797
37	0x3e4b8a71	0.1987703
38	0x3e4ac86a	0.19803014
39	0x3c017c0e	0.007903112
40	0xbdedfa83	-0.11620047
41	0xbe97b717	-0.29631874
42	0xbe9aa5b4	-0.30204546
43	0x3a4f6e02	0.0007912816
44	0x3bc132ca	0.005895947
45	0xbe17c312	-0.14820507
46	0xbe0dc8e7	-0.1384617
47	0xbdf20aeb	-0.11818489
48	0xbe64ec9f	-0.22355889
49	0x3e26d465	0.1629196
50	0xbb9a97c2	-0.004717798
51	0xbe07720c	-0.13227099
52	0x3d00d837	0.0314562
53	0x3e23c5d6	0.15993437
54	0xbce42fc3	-0.027854806
55	0x3dffbbdf	0.124870054
56	0x3d651d02	0.055935867
57	0x3e0f7540	0.14009571
58	0xbe921cac	-0.285375
59	0x3ec8eac3	0.3924161
60	0x3d0c98ce	0.034325413
61	0x3f271adb	0.65275353
62	0x3e29da25	0.16587122
63	0xbdeb7ecc	-0.11498794
64	0xbe0048ff	-0.12527846
65	0x3f008d5d	0.50215703
66	0x3c2ea23a	0.010658795
67	0x3edfd82c	0.43719614
68	0x3e2c5607	0.16829692
69	0xbf3958dd	-0.7240122
70	0x3e8c2624	0.2737285
71	0x3de34f76	0.1109914
72	0xbd106d8c	-0.035260722
73	0xbe898245	-0.268572
74	0x3d3533d4	0.04423888
75	0xbe8e44ea	-0.27786952
76	0xbe97156a	-0.29508525
77	0x3deed57e	0.11661814
78	0x3e2dd78f	0.1697676
79	0x3d9b3946	0.075792834
80	0x3e2f6044	0.17126566
81	0x3e864c8c	0.26230276
82	0x3e08961e	0.13338515
83	0x3f2e6c0a	0.68133605
84	0xbed6d247	-0.41957304
85	0xbe200616	-0.15627322
86	0xbcdbdb69	-0.026838021
87	0x3ee7c0c9	0.4526427
88	0x3b12b0db	0.0022383246
89	0xbcec34d7	-0.02883379
90	0x3e39de38	0.18151176
91	0x3ed4b6a5	0.41545597
92	0xbeacd1bf	-0.33753774
93	0xbe966274	-0.2937199
94	0xbd6629e2	-0.056192286
95	0xbdb6e5fb	-0.08930584
96	0xbe1e16ec	-0.15438432
97	0xbc19f9f7	-0.009397975
98	0x3e4e8ee2	0.20171693
99	0xbe371c3a	-0.17881861
100	0xbed43105	-0.4144365
101	0xbeac5214	-0.3365637
102	0xbdc73988	-0.0972777
103	0x3e924bde	0.28573507
104	0xbea8ad27	-0.32944605
105	0x3dc4c207	0.0960732
106	0x3ef11326	0.47084922
107	0x3e481ec3	0.19542985
108	0xbf47da16	-0.7806715
109	0x3ede0cd1	0.43369153
110	0x3b8e6bd5	0.0043463507
111	0xbeb4c158	-0.3530376
112	0x3e885041	0.2662373
113	0xbe386bf7	-0.18009935
114	0xbda642ae	-0.08118187
115	0xbdf5c72d	-0.120008804
116	0x3e32b795	0.17452843
117	0x3e3a6f78	0.18206584
118	0xbe8f075c	-0.27935302
119	0xbf15105d	-0.58228093
120	0x3e3946e8	0.18093455
121	0xbe3282ca	-0.17432705
122	0x3dc44e94	0.095853
123	0x3d9fadc8	0.07796818
124	0x3f25166d	0.64487344
125	0xbe992db7	-0.2991769
126	0x3e02bcbf	0.12767313
127	0x3c722c1f	0.014781027
128	0xbdf31fc4	-0.11871293
129	0x3ef73862	0.48285204
130	0xbe2eab0d	-0.17057438
131	0x3db40629	0.087902375
132	0x3e019d52	0.12657669
133	0x3ee499e7	0.44648668
134	0x3db966eb	0.09052833
135	0x3e32987b	0.17440979
136	0xbe259691	-0.16170718
137	0x3f4699f3	0.7757866
138	0x3da2ce95	0.07949559
139	0xbdf1583d	-0.11784408
140	0x3eb7ab7f	0.3587303
141	0x3d2d30b6	0.042282782
142	0x3ca1bedb	0.019744327
143	0xbeac1793	-0.33611736
144	0x3e953f2c	0.2914976
145	0x3dc61b5d	0.09673188
146	0x3e22aadb	0.15885489
147	0xbd901eb4	-0.07037106
148	0xb8f779ff	-0.00011800601
149	0x3a5e2994	0.00084748236
150	0xbe01d9f4	-0.12680799
151	0x3e194cde	0.14970729
152	0xbe47f3fb	-0.19526665
153	0x3d3d85a5	0.04627003
154	0x3e234b0c	0.15946597
155	0x3d871a5b	0.06596824
156	0xbda32ed0	-0.07967913
157	0x3d527cde	0.051388614
158	0xbec3053d	-0.38089934
159	0x3ced5fb1	0.028976293
160	0x3dfb5f3a	0.122740224
161	0x3e30d66f	0.172693
162	0xbe405857	-0.18783699
163	0xbd1b38df	-0.037896033
164	0xbc4ea854	-0.012613375
165	0xbeda552f	-0.42643115
166	0xbe09434d	-0.1340458
167	0x3bf010bd	0.007326214
168	0x3edfa31b	0.43679127
169	0xbeba3f4c	-0.36376417
170	0xbc91ca4d	-0.01779666
171	0x3d082ea2	0.033247598
172	0x3e3f03de	0.18653819
173	0x3de22c1d	0.1104357
174	0x3b25b28a	0.002528342
175	0x3d480901	0.04883671
176	0xbd93e493	-0.072213314
177	0xbe5f2438	-0.2179116
178	0x3dde016a	0.108401135
179	0x3f1f72b4	0.622844
180	0x3f09d300	0.53837585
181	0xbe400218	-0.18750799
182	0xbde61532	-0.112345114
183	0xbea50825	-0.32232776
184	0xbd3dd605	-0.046346683
185	0xbdf4f8d3	-0.11961522
186	0x3e486024	0.19567925
187	0xbe2d62c9	-0.16932215
188	0xbe9b174c	-0.30291212
189	0x3eac01f1	0.3359523
190	0xbbe2628e	-0.0069087213
191	0x3e880981	0.2656975
192	0x3f58a10b	0.8462073
193	0xbf2ccf49	-0.6750379
194	0x3dbbcf1e	0.09170364
195	0x3dafee55	0.0859038
196	0xbf2d61d8	-0.6772742
197	0xbe89b90d	-0.26898995
198	0xbf3aaf7d	-0.72924024
199	0xbedd3b3f	-0.43209264
200	0xbf1bcc60	-0.60858727
201	0xbe634c42	-0.22197059
202	0x3e23a19f	0.15979622
203	0x3d7f828d	0.062380362
204	0x3e56597d	0.20932575
205	0x3e1c0539	0.15236367
206	0xbd925c18	-0.07146472
207	0x3e79bec7	0.24389182
208	0xbf309968	-0.6898408
209	0x3ceaef6c	0.028678618
210	0x3d16ac19	0.03678522
211	0xbd598d80	-0.05311346
212	0xbe582f4d	-0.21111794
213	0xbe6ed11c	-0.23321956
214	0x3ef8fcd4	0.48630393
215	0x3eb1852c	0.34671915
216	0xbee9faf6	-0.4569928
217	0x3e6774f9	0.22603215
218	0x3f756987	0.95864147
219	0x3d008b3a	0.031382777
220	0xbe5581c1	-0.20850278
221	0x3dc14c4e	0.09438382
222	0x3e34d85b	0.17660658
223	0xbdc7aca9	-0.09749729
224	0xbd9bf6bb	-0.076154195
225	0x3dcc5c7c	0.099785775
226	0x3d07de67	0.033171084
227	0x3d66c89b	0.056343656
228	0x3effa8cd	0.49933472
229	0xbe64b8bf	-0.223361
230	0x3db81bee	0.08989702
231	0xbe9af29e	-0.30263227
232	0x3e71c9f6	0.23612198
233	0xbe733bf8	-0.23753345
234	0x3ccd264a	0.025042672
235	0xbf03c5c4	-0.5147364
236	0xbe5d85d9	-0.2163309
237	0xbef87257	-0.48524734
238	0xbe1b6d49	-0.15178408
239	0x3e99cf63	0.30041036
240	0x3e9a81d4	0.30177176
241	0xbec1c730	-0.3784728
242	0xbebacd91	-0.3648496
243	0xbd9253e0	-0.07144904
244	0xbefc4a97	-0.49275658
245	0x3e883c08	0.266083
246	0x3f14a428	0.5806298
247	0xbe2c32d4	-0.16816264
248	0xbe625de4	-0.22106129
249	0xbe07742a	-0.13227907
250	0xbc096f4d	-0.008388353
251	0xbe81a443	-0.25320634
252	0x3db2c806	0.08729558
253	0x3ed93c8b	0.42429003
254	0x3eae1a3b	0.34004387
255	0x3cfc970c	0.030833744

adk1.ADKGenerator.spatial_branch.1.bias f4 [9]
0	0xbea592db	-0.32338604
1	0x3da79dcf	0.081843965
2	0xba6fc28f	-0.0009146118
3	0x3db0ba88	0.08629328
4	0x3d7637c3	0.060111772
5	0xbd59d5dc	-0.053182468
6	0x3d341203	0.04396249
7	0x3db5611a	0.08856411
8	0xbd237dc1	-0.03991485

adk1.ADKGenerator.spatial_branch.2.weight f4 [9, 9, 3, 3]
0	0x3e184885	0.14871414
1	0x3f258192	0.64650834
2	0x3eb1e7dc	0.34747207
3	0x3ee664b9	0.4499872
4	0x3ea15661	0.31511214
5	0xbe2ad16a	-0.16681448
6	0xbcc68ff3	-0.024238562
7	0xbe87f2b3	-0.26552352
8	0xbe84c0dc	-0.2592839
9	0xbe71e9b2	-0.23624304
10	0xbea6c602	-0.32572943
11	0xbf1cbb0a	-0.612229
12	0xbe0cef81	-0.13763238
13	0xbe5e76db	-0.21725027
14	0xbe0a498c	-0.13504618
15	0xbf577751	-0.8416644
16	0x3db88648	0.09009987
17	0x3ef3ce77	0.47618458
18	0xbeb3679c	-0.35039985
19	0xbea386bc	-0.31938732
20	0xbe26da2c	-0.16294163
21	0x3dffcae9	0.12489874
22	0x3e785c34	0.24253923
23	0xbb6b253b	-0.0035880345
24	0x3ea4a437	0.32156536
25	0x3db70773	0.08936968
26	0xbe3b42a2	-0.18287137
27	0xbeb11237	-0.3458421
28	0xbe22ae96	-0.15886912
29	0x3e764779	0.24050702
30	0x3d99c132	0.07507552
31	0x3cd31794	0.025768079
32	0x3e5f5616	0.21810183
33	0xbf1aae97	-0.6042265
34	0xbe82be6b	-0.25535902
35	0x3ec4fc44	0.38473713
36	0xbee26518	-0.44217753
37	0xbf2059ba	-0.6263691
38	0xbc2fd8f6	-0.01073288
39	0x3e434306	0.19068536
40	0x3d70381c	0.05864726
41	0xbec8d845	-0.392275
42	0x3e7c2bfc	0.24626154
43	0x3f031717	0.5120711
44	0x3e227eb9	0.15868653
45	0x3e5da476	0.21644768
46	0x3f396f4c	0.7243545
47	0xbea3cac5	-0.31990638
48	0xbf25543f	-0.64581674
49	0xbf505821	-0.81384474
50	0x3ee3c26b	0.44484267
51	0x3f6c8650	0.92392445
52	0xbe6ebd9b	-0.23314516
53	0xbda6b2ca	-0.0813957
54	0xbe58b0e0	-0.21161222
55	0x3e5da432	0.21644667
56	0xbdfeb149	-0.12436158
57	0x3f51fc22	0.8202535
58	0x3e7ebd98	0.24877012
59	0xbfa3e1c3	-1.2803272
60	0xbe836538	-0.2566316
61	0xbd6ba639	-0.05753157
62	0xbea15bf8	-0.3151548
63	0xbeb0a8c9	-0.34503773
64	0xbf02bc84	-0.510689
65	0xbf149c20	-0.5805073
66	0xbde89c01	-0.113578804
67	0x3eb32f1a	0.34996873
68	0x3f18e9cb	0.5973174
69	0x3dbf92fa	0.093542054
70	0x3abcd650	0.0014407132
71	0x3e259628	0.16170561
72	0x3ebdf7ee	0.37103218
73	0xbe81602a	-0.2526868
74	0xbefa9761	-0.48943618
75	0xbf6b9f8c	-0.92040324
76	0x3ead4995	0.338452
77	0x3f6228db	0.8834359
78	0x3eb2787b	0.34857544
79	0x3da5e7ee	0.08100878
80	0x3f1d0b5f	0.61345476
81	0x3e936a8c	0.28792226
82	0x3e6efa12	0.23337582
83	0x3cf1d21b	0.029519131
84	0xbc9fbdab	-0.01949962
85	0xbbe432cd	-0.0069640637
86	0x3d6f0e4d	0.058363248
87	0x3c07bcab	0.008284728
88	0x3e15bb08	0.14622128
89	0x3ef17360	0.47158337
90	0x3f227038	0.6345248
91	0x3d6693f9	0.05629346
92	0xbc70079e	-0.014650254
93	0x3dac0ece	0.08401261
94	0x3e3edd38	0.18639076
95	0x3de7ddfb	0.11321636
96	0x3d20179a	0.03908501
97	0xbe9afcbe	-0.30270952
98	0xbe25364c	-0.16133994
99	0xbee00ae7	-0.43758318
100	0x3e94dc97	0.29074547
101	0x3cff0a59	0.031132864
102	0xbd098845	-0.033577222
103	0x3f87486d	1.0568978
104	0x3ec5dd2e	0.3864531
105	0xbe204766	-0.15652236
106	0x3f482559	0.7818199
107	0x3e963b8c	0.29342306
108	0xbab3ecba	-0.0013727166
109	0xbef46182	-0.47730643
110	0xbec93fec	-0.3930658
111	0x3ea6e5cc	0.32597196
112	0xbf0252a5	-0.50907356
113	0xbe762ff6	-0.24041733
114	0x3ee6c203	0.45069894
115	0x3ea28b52	0.31746918
116	0x3eab15ca	0.3341506
117	0x3e41da9b	0.18931048
118	0x3ec675e1	0.3876181
119	0xbcb02138	-0.021500215
120	0xbe9b3aa3	-0.30318174
121	0x3f13b0d9	0.57691723
122	0xbed0a9c5	-0.40754524
123	0xbe7a580b	-0.24447648
124	0x3b57f4c8	0.0032952297
125	0xbc1771e3	-0.009243461
126	0x3ded12f7	0.11575883
127	0xbeaff1f7	-0.34364292
128	0xbe6aed86	-0.2294217
129	0x3ef183f3	0.47170982
130	0x3d8daf3f	0.06918191
131	0xbdb485c3	-0.088145755
132	0x3efc64ff	0.49295804
133	0x3e3b0fd4	0.18267757
134	0xbeba065c	-0.36332977
135	0xbe55d4fc	-0.20882028
136	0x3db77b2a	0.089590386
137	0xbe361d69	-0.17784657
138	0xbb3c7d3e	-0.0028761174
139	0x3d9f6fd9	0.07785005
140	0xbe8bd742	-0.27312666
141	0x3e322169	0.17395557
142	0xbdc3395b	-0.09532424
143	0xbde32abf	-0.110921375
144	0x3ddc697d	0.10762308
145	0x3e73bd46	0.23802671
146	0x3e9160ce	0.2839417
147	0xbebcbf95	-0.36864915
148	0xbed38715	-0.41313997
149	0xbe65eb0f	-0.22452949
150	0xbe2c7a8f	-0.16843627
151	0x3eedc072	0.46435887
152	0x3e116d66	0.14201888
153	0xbe288242	-0.1645594
154	0x3ddf6d77	0.10909551
155	0x3f19d6b8	0.6009326
156	0xbe95d049	-0.2926047
157	0xbf169838	-0.5882602
158	0x3e549bee	0.20762607
159	0x3e97a084	0.2961465
160	0x3ce697f7	0.028148634
161	0x3ec72572	0.38895756
162	0xbdbc66ac	-0.091992706
163	0x3d1619fa	0.036645867
164	0x3ea39c34	0.3195511
165	0x3d90a521	0.07062746
166	0x3d14a87f	0.036293503
167	0x3ec7eeab	0.39049277
168	0xbeb11c24	-0.34591782
169	0xbead6df4	-0.3387295
170	0x3dd196f4	0.1023387
171	0xbda0d05f	-0.07852244
172	0x3dbe1ca8	0.092828095
173	0x3d517230	0.05113429
174	0x3d200b97	0.039073553
175	0xbbdb7b94	-0.0066980813
176	0x3d62485a	0.05524478
177	0x3b0d3d50	0.0021551438
178	0x3d6dd4a5	0.05806412
179	0xbe17dc10	-0.14830041
180	0xbd5c10f1	-0.053727094
181	0x3df44adb	0.1192834
182	0x3f1f678b	0.6226737
183	0xbe017767	-0.12643205
184	0xbd9fd544	-0.07804349
185	0x3f0d4d96	0.5519651
186	0xbeab1e3a	-0.334215
187	0xbe75bceb	-0.23997848
188	0x3ed6b50f	0.41935012
189	0xbee4b2dd	-0.44667712
190	0x3e5c67c7	0.21523963
191	0xbe491eca	-0.19640651
192	0xbd787bcf	-0.060664948
193	0x3ebb3d03	0.36569986
194	0x3da93e08	0.08263785
195	0xbe90ffbd	-0.28320113
196	0xbccd844e	-0.025087502
197	0xbaf566b5	-0.0018722626
198	0xbddda5b6	-0.108226225
199	0x3d32fb39	0.043696616
200	0x3d83bafa	0.06432147
201	0xbefd5c31	-0.494844
202	0x3ddff258	0.10934895
203	0xbe9ac945	-0.3023168
204	0x3ec72c8e	0.3890118
205	0xbe15c4e6	-0.14625892
206	0xbf09c5cb	-0.53817433
207	0x3e617ff3	0.22021465
208	0x3f2cba0a	0.67471373
209	0xbe9bcaa3	-0.30428037
210	0xbdbbd2ec	-0.091710895
211	0x3e731589	0.23738684
212	0xbeaadbc7	-0.33370802
213	0x3cfbbb18	0.030728862
214	0xbd0bf88c	-0.03417258
215	0xbe887244	-0.26649678
216	0xbd699901	-0.05703068
217	0xbcfa9163	-0.030586904
218	0x3ea87ca0	0.3290758
219	0xbed03c99	-0.40671232
220	0x3cf8534c	0.030313157
221	0x3e2f81fb	0.17139427
222	0xbe076bbb	-0.1322469
223	0xbdc2cd16	-0.09511773
224	0x3e6a90b5	0.22906764
225	0xbe38854c	-0.18019599
226	0x3d1fd0d5	0.039017517
227	0xbf0ec91a	-0.55775607
228	0x3ea574c3	0.32315645
229	0x3cb1f75e	0.0217244
230	0xbf0b5564	-0.5442717
231	0x3ed24782	0.4107018
232	0x3eda3779	0.42620447
233	0x3e967c83	0.2939187
234	0x3e9ab1b7	0.3021371
235	0xbf06aee0	-0.5261059
236	0xbe148e04	-0.145073
237	0x3d3bbc48	0.045833856
238	0xbe18de9d	-0.1492867
239	0x3d354602	0.044256218
240	0xbe8406f6	-0.2578656
241	0xbecc671a	-0.3992241
242	0xbef700a8	-0.48242688
243	0xbe910657	-0.2832515
244	0xbcf39cc6	-0.029737841
245	0x3d244910	0.04010874
246	0x3da3a53e	0.07990502
247	0x3e453b43	0.19260888
248	0x3dbc118c	0.09183034
249	0xbed713ec	-0.42007387
250	0xbe035a68	-0.12827456
251	0xbe0d731b	-0.1381344
252	0xbe4abccb	-0.19798581
253	0x3ec5b8ab	0.38617453
254	0x3d282188	0.041047603
255	0xbda5c7c6	-0.080947444

adk1.ADKGenerator.spatial_branch.2.bias f4 [9]
0	0xbf997200	-1.1987915
1	0xbe5fd980	-0.21860313
2	0x3f8e0b9f	1.1097296
3	0x3f9a1788	1.2038431
4	0x3e3985cb	0.18117444
5	0x3e2146e4	0.15749699
6	0xbec1da1b	-0.37861714
7	0x3f1978aa	0.59949744
8	0x3f5d0a07	0.86343426

adk1.ADKGenerator.spatial_branch.4.weight f4 [9, 9, 3, 3]
0	0x3e9872d4	0.29775107
1	0x3f611a0a	0.8793036
2	0x3ead2627	0.3381817
3	0xbe2d0b26	-0.16898784
4	0x3e08847d	0.1333179
5	0x3e788fe6	0.24273643
6	0x3ebbd2d6	0.36684293
7	0x3f116048	0.5678754
8	0x3f1b64d5	0.6070073
9	0x3ea3abd2	0.31967026
10	0x3e0479f9	0.12937154
11	0x3e0521cf	0.13001178
12	0x3d946054	0.07244936
13	0x3e17829c	0.14795917
14	0xba82a827	-0.0009968326
15	0x3e80f8db	0.25189862
16	0x3de88dc3	0.11355164
17	0x3e70cfbe	0.23516747
18	0xbd18d089	-0.03730825
19	0xbb4bcc74	-0.0031097205
20	0xbf005ae6	-0.501387
21	0xbe863d20	-0.2621851
22	0xbe1030df	-0.14081143
23	0xbec40154	-0.38282263
24	0xbdd3352c	-0.10312876
25	0xbd28f1bc	-0.04124616
26	0xbeb50c3c	-0.35360897
27	0x3e8acf15	0.27111116
28	0x3de99f20	0.11407304
29	0xbda49492	-0.0803615
30	0x3d8f6ed1	0.070035584
31	0x3de74601	0.11292649
32	0xbda014d0	-0.0781647
33	0xbea16361	-0.31521133
34	0xbed1a39f	-0.40945145
35	0xbf1772c1	-0.59159476
36	0xbeb21ec5	-0.347891
37	0xbd90e628	-0.07075149
38	0xbea1b210	-0.31581163
39	0xbf06392f	-0.52431005
40	0xbd9c5a50	-0.07634413
41	0x3c45f9b4	0.01208346
42	0xbf0d9c75	-0.5531686
43	0xbe092e18	-0.1339649
44	0x3dffdcd4	0.124932915
45	0xbf39e4a4	-0.726145
46	0xbd14ff88	-0.036376506
47	0xbe104607	-0.14089213
48	0xbf025869	-0.50916153
49	0x3f0d4117	0.55177444
50	0xbe3b6158	-0.18298852
51	0xbdde8e8e	-0.10867034
52	0xbd93f967	-0.07225304
53	0x3dd72186	0.10504441
54	0xbe80fd54	-0.25193274
55	0xbebeae8f	-0.37242553
56	0x3f172757	0.590444
57	0xbf112dda	-0.5671059
58	0xbdeb44b5	-0.11487714
59	0x3ebd40b3	0.36963424
60	0x3e8cdab4	0.27510607
61	0x3f165837	0.58728355
62	0xbe8ea796	-0.27862233
63	0xbec6c9d6	-0.38825864
64	0xbe79877d	-0.24368091
65	0x3d80607b	0.06268402
66	0xbd01d59f	-0.031697866
67	0xbdc04326	-0.093878075
68	0x3de77209	0.11301047
69	0xbf2f70ef	-0.685317
70	0xbf0ab92b	-0.54188794
71	0xbee1c807	-0.4409792
72	0x3e009d6e	0.12560055
73	0xbeaeb8bc	-0.34125316
74	0xbd9f7963	-0.077868246
75	0x3da53892	0.080674306
76	0x3d99b9c8	0.07506138
77	0xbc66463f	-0.014054834
78	0x3df50cec	0.11965355
79	0x3e146c99	0.14494552
80	0x3e4a87b0	0.19778323
81	0x3f282e60	0.6569576
82	0x3e7215cd	0.23641129
83	0x3c00037a	0.007813329
84	0xbd8edfd7	-0.06976288
85	0xbab15174	-0.0013528303
86	0x3e88dcef	0.2673106
87	0x3cb68d0b	0.022284051
88	0x3e5f1e86	0.21788988
89	0x3d7cdcfa	0.061734177
90	0x3e605fd1	0.21911551
91	0x3dac0323	0.08399036
92	0x3e810a47	0.25203153
93	0xbc2d4509	-0.010575541
94	0xbe477fdc	-0.19482368
95	0xbe3cfd92	-0.18456104
96	0xbed3ee7b	-0.41392884
97	0xbe28699b	-0.16446535
98	0xbecd4023	-0.40087995
99	0xbed08ff2	-0.40734822
100	0xbe98f75d	-0.29876223
101	0xbe977cde	-0.29587454
102	0xbe8c3ea6	-0.27391547
103	0xbeab0d18	-0.33408427
104	0xbe4b2385	-0.19837768
105	0xbe44a1f3	-0.19202404
106	0xbef28d4f	-0.47373435
107	0xbf30051f	-0.68757814
108	0xbf1dc447	-0.6162762
109	0xbed2cdc5	-0.41172615
110	0xbee67673	-0.45012245
111	0xbe724a52	-0.23661163
112	0xbd0ac799	-0.033881757
113	0xbe7d671b	-0.24746363
114	0xbf1ea2c3	-0.61967105
115	0xbe8ded69	-0.27720192
116	0xbef64afe	-0.4810409
117	0xbf34a223	-0.705599
118	0xbed17170	-0.40906858
119	0xbe50f803	-0.20407109
120	0xbec786e2	-0.38970095
121	0xbe5e0797	-0.21682583
122	0xbe1fafeb	-0.15594451
123	0x3d3ba520	0.045811772
124	0xbdcbefe5	-0.099578656
125	0xb8fbf56c	-0.00012014326
126	0xbe3bcf59	-0.18340816
127	0x3e9b13ec	0.30288637
128	0xbe3238c9	-0.17404474
129	0x3e98e004	0.2985841
130	0x3eaa22ad	0.3322958
131	0xbea03ec6	-0.31297892
132	0x3eb3655d	0.35038272
133	0x3c5faa5f	0.0136514595
134	0xbe748d15	-0.23881944
135	0x3ebf7ed9	0.37401465
136	0xbe37e2e7	-0.1795765
137	0x3ec0ea07	0.3767855
138	0x3e9910fe	0.29895777
139	0xbea6d51b	-0.32584462
140	0xbe3e2637	-0.18569265
141	0x3ee9621f	0.45582673
142	0xbe8cc00b	-0.27490267
143	0x3d8cacdc	0.06868908
144	0xbdd58cac	-0.10427222
145	0xbdf3859b	-0.118907176
146	0x3c972ee7	0.018454982
147	0xbf08dc20	-0.53460884
148	0xbe6fe693	-0.23427801
149	0xbe9cafe9	-0.3060296
150	0xbf0480fc	-0.51759315
151	0x3beb102c	0.0071735587
152	0xbe26ee6c	-0.16301888
153	0xbeea0dc2	-0.4571362
154	0xbe469282	-0.19391826
155	0xbea92bc5	-0.33041206
156	0xbedc4b6d	-0.43026295
157	0xbd90c6d2	-0.07069172
158	0x3d6050b4	0.054764464
159	0xbf458668	-0.7715821
160	0xbf05bd11	-0.5224162
161	0xbeccaf38	-0.3997743
162	0xbb0bee84	-0.0021351883
163	0x3d723ee3	0.059142005
164	0x3e759ecd	0.23986359
165	0xbdc53bbf	-0.09630536
166	0xbd9ae6da	-0.07563563
167	0xbe745ade	-0.23862788
168	0xbf4ed581	-0.8079453
169	0xbe43f390	-0.1913588
170	0xbed47dd2	-0.41502243
171	0xbd4eca9e	-0.0504862
172	0x3e4a45c1	0.19753172
173	0xbd2edc5e	-0.042690627
174	0xba7ddc2e	-0.00096839934
175	0x3e01186c	0.12606972
176	0x3c6f5d83	0.014609697
177	0x3eb403f4	0.35159266
178	0x3eba175f	0.36345956
179	0x3e2f0344	0.1709109
180	0x3de379e9	0.11107237
181	0x3e8f7528	0.2801907
182	0xbe89ddd8	-0.26927066
183	0x3e974da5	0.29551426
184	0x3e5b35da	0.21407261
185	0xbdafae32	-0.08578147
186	0x3e509cd9	0.20372333
187	0x3ed16d20	0.40903568
188	0x3c91cc98	0.017797753
189	0x3e57f2d8	0.21088731
190	0x3db6a435	0.08918039
191	0x3efc44bc	0.4927119
192	0x3eb4251d	0.35184565
193	0x3e392228	0.18079436
194	0x3e1aad63	0.15105204
195	0x3e6d135e	0.23151919
196	0x3daa1e32	0.083065405
197	0x3ef85d82	0.4850884
198	0x3ec7a338	0.38991714
199	0x3e1ff378	0.1562022
200	0x3d86a577	0.06574529
201	0x3e814263	0.25245962
202	0xbd46d3af	-0.04854172
203	0x3e3dadca	0.18523327
204	0xbd46807c	-0.048462376
205	0xbe889220	-0.26673985
206	0xbe58644b	-0.21132009
207	0x3ea05f0d	0.31322518
208	0x3e1c2a73	0.15250568
209	0x3c5f4115	0.013626357
210	0xbe883d27	-0.26609156
211	0x3ec169ae	0.3777594
212	0xbd9abaf7	-0.07555192
213	0x3d8228ee	0.06355463
214	0x3eab3ff9	0.33447245
215	0x3d2ee554	0.042699173
216	0xbf06198e	-0.52382743
217	0xbe944c1c	-0.28964317
218	0xbf1bab4d	-0.6080826
219	0xbcf8b583	-0.030359989
220	0x3e3a302d	0.1818244
221	0x3e590b9b	0.21195833
222	0xbf1cc29b	-0.61234444
223	0xbde6b0db	-0.11264201
224	0xbf50cfec	-0.81567264
225	0x3e537b36	0.2065247
226	0x3eb1b081	0.34704974
227	0x3ea4f3cb	0.3221725
228	0x3e82c014	0.2553717
229	0x3f00c4b8	0.5030017
230	0x3dedfed2	0.11620869
231	0x3e029f97	0.12756191
232	0x3ef7177e	0.4826011
233	0x3ed1e614	0.40995848
234	0x3eb2f1c1	0.3495007
235	0x3da46477	0.08026975
236	0x3f141818	0.57849264
237	0x3e0e4b27	0.13895856
238	0xbdb35eda	-0.08758326
239	0x3e2cf10f	0.16888832
240	0x3e87e017	0.26538154
241	0x3e189510	0.14900613
242	0x3ecb108a	0.39661056
243	0xbd77af3f	-0.060469862
244	0x3e521145	0.205144
245	0xbee758e6	-0.45185012
246	0x3efce091	0.4939008
247	0x3e4c6425	0.19960077
248	0xbec283ad	-0.37991086
249	0xbe3641e9	-0.1779858
250	0xbe5d71f7	-0.21625505
251	0xbf96d092	-1.1782401
252	0x3e825732	0.2545715
253	0x3e7cb6e1	0.24679138
254	0x3ec988e3	0.3936225
255	0x3f4e8529	0.80671936

adk1.ADKGenerator.spatial_branch.4.bias f4 [9]
0	0xbf6d07db	-0.9259011
1	0xbf28f567	-0.65999454
2	0x3eb6a86c	0.3567537
3	0xbee58a28	-0.44831967
4	0xbd1df513	-0.0385638
5	0x3dc20285	0.09473137
6	0xbe990130	-0.29883718
7	0x3f7b89a4	0.982569
8	0x3ecb59c9	0.39716938

adk1.ADKGenerator.spectral_branch.1.weight f4 [3, 60, 1, 1]
0	0xbd214c6a	-0.039379515
1	0x3ec805ce	0.3906693
2	0x3e2f6782	0.17129329
3	0xbe7464b1	-0.23866536
4	0xbcb54b15	-0.022130528
5	0xbed6c3d0	-0.41946268
6	0x3e80994f	0.25116965
7	0xbe8ccfce	-0.27502292
8	0x3f474198	0.77834463
9	0x3f3d8f55	0.7404683
10	0xbeca912d	-0.39563885
11	0xbf29269f	-0.66074556
12	0xbdb470eb	-0.088106
13	0x3ddbdba4	0.107352525
14	0x3ea71711	0.32634786
15	0xbe6820fd	-0.22668834
16	0xbfc06bed	-1.5032936
17	0x3f127427	0.57208484
18	0x3ddc6c1a	0.10762806
19	0x3e248fe2	0.16070512
20	0xbdd9e437	-0.10639232
21	0x3dfff2c3	0.12497475
22	0xbfd5338c	-1.6656356
23	0x3f7fab65	0.998709
24	0xbda48086	-0.080323264
25	0x3dfc2a3e	0.123127446
26	0x3efd936f	0.49526545
27	0xbe004737	-0.12527166
28	0xbe979da0	-0.29612446
29	0xbd10df08	-0.03536895
30	0xbeb56965	-0.35431972
31	0xbf0412b0	-0.51591015
32	0xbde2a597	-0.1106674
33	0x3faa2e97	1.3295468
34	0x3d0a9df3	0.03384204
35	0xbf71ea8a	-0.94498503
36	0x3c9963d3	0.018724358
37	0xbf1909c0	-0.597805
38	0x3dfc3802	0.1231537
39	0x3d2f7cfa	0.042843796
40	0xbed7e84b	-0.42169413
41	0xbe75d7a4	-0.24008042
42	0xbf16ef3d	-0.589588
43	0xbeb6d3c5	-0.35708442
44	0x3e8fc6e0	0.28081417
45	0xbe9550c2	-0.29163176
46	0x3e7f2bce	0.24919054
47	0x3e456fdf	0.19280957
48	0x3f4ba1af	0.79543585
49	0xbf987463	-1.1910518
50	0xbe6e28ed	-0.232578
51	0xbf0746e8	-0.5284257
52	0x3f14ba1e	0.5809649
53	0xbdaec6df	-0.085340254
54	0xbf4a1ded	-0.78951913
55	0x3ceafe83	0.028685814
56	0xbf026854	-0.5094044
57	0xbfdb558d	-1.7135483
58	0xbec8518b	-0.39124712
59	0x3c89f4be	0.016840335
60	0x3db30978	0.087420404
61	0xbe9ace8d	-0.3023571
62	0xbda2e568	-0.07953912
63	0x3e15e18b	0.14636819
64	0x3e91aaec	0.28450716
65	0xbdc968b9	-0.098344274
66	0xbc17436f	-0.009232386
67	0xbe8d6ed7	-0.27623627
68	0x3fdfdf3b	1.749
69	0xbe893eda	-0.26805764
70	0xbe9d08d9	-0.30670813
71	0x3e800585	0.2500421
72	0xbdfd62d7	-0.12372368
73	0xbcc67cd7	-0.02422945
74	0xbe50c759	-0.20388545
75	0x3f0e4e5c	0.55588317
76	0x3ea2eb30	0.3182006
77	0xbfc9031b	-1.5704073
78	0x3dc5cf4e	0.09658681
79	0x3e23d610	0.15999627
80	0xbf9ea2d1	-1.2393438
81	0xbd1a920e	-0.037736945
82	0x3e217234	0.15766221
83	0x3dce132e	0.10062252
84	0x3e8e9bf9	0.27853373
85	0x3cd1b65b	0.02559965
86	0x3f3328c8	0.699841
87	0x3e83f32c	0.25771463
88	0x3eb70b59	0.35750845
89	0x3cfa31d5	0.03054134
90	0x3e8eed19	0.27915266
91	0x3de7444f	0.11292326
92	0x3f674746	0.9034313
93	0xbf0bc1b2	-0.5459243
94	0x3c831c82	0.016004805
95	0x3f5129a0	0.8170414
96	0x3e6421a3	0.22278456
97	0x3e4bf784	0.19918638
98	0x3ddacf81	0.106841095
99	0x3f0014f7	0.5003199
100	0xbf09ba2c	-0.537997
101	0x3ebb4042	0.36572462
102	0x3e29e204	0.16590124
103	0x3ce995f4	0.028513886
104	0xbd4c3bf4	-0.049861863
105	0x3f19aee2	0.60032475
106	0x3e220d34	0.15825349
107	0x3eada82a	0.33917361
108	0x3e9204e8	0.28519368
109	0xbf365bfe	-0.7123412
110	0x3e7e5422	0.24836782
111	0xbeda4892	-0.42633492
112	0xbf1df823	-0.6170675
113	0x3db202f7	0.08691972
114	0x3f26d9e9	0.65176255
115	0xbd9160d5	-0.07098547
116	0xbd8ab72f	-0.06773221
117	0x3f0374c0	0.5135002
118	0xbe69d8ed	-0.22836657
119	0x3dad0686	0.0844851
120	0x3e083a28	0.13303435
121	0xba621285	-0.00086239754
122	0x3ed8ae0e	0.42320293
123	0xbea9e005	-0.33178726
124	0xbe2a7473	-0.16645984
125	0x3e20f97a	0.15720168
126	0xbe55edd6	-0.20891508
127	0x3eb723c7	0.35769483
128	0x3fdad9c9	1.7097713
129	0xbf6665c5	-0.8999904
130	0xbe5ef53c	-0.21773237
131	0xbf11b004	-0.56909204
132	0xbe8e2e63	-0.27769765
133	0xbe08aae8	-0.13346446
134	0x3ece224f	0.4026055
135	0x3c4752f7	0.012165776
136	0x3e9405ef	0.28910777
137	0x3f020655	0.5079091
138	0xbe67efdc	-0.22650093
139	0xbc97da08	-0.018536583
140	0xbdf475cb	-0.1193653
141	0xbdbb2bae	-0.091391906
142	0x3d80806b	0.06274494
143	0x3f2e7a56	0.6815542
144	0x3f14eb8a	0.58171904
145	0xbefd87f2	-0.4951778
146	0x3f17298e	0.5904778
147	0xbeb5f342	-0.35537153
148	0x3eeb7143	0.4598485
149	0xbe29ca9a	-0.16581193
150	0xbebb755f	-0.36612985
151	0x3dccaad8	0.09993523
152	0x3ed5abba	0.4173258
153	0x3f684079	0.9072338
154	0xbe513d07	-0.20433436
155	0xbfb6548b	-1.424455
156	0xbd3c4bbf	-0.045970675
157	0xbcabc135	-0.020966152
158	0xbd920d31	-0.07131422
159	0x3f41f4c1	0.7576409
160	0x3e3ff2cc	0.18744963
161	0xbeffcdc9	-0.4996169
162	0xbe00e36a	-0.12586752
163	0x3e174ed8	0.1477617
164	0x3f61f840	0.88269424
165	0xbf2d1564	-0.67610765
166	0xbda02396	-0.078192875
167	0x3de6a644	0.112621814
168	0x3ee95866	0.45575255
169	0x3e2439fb	0.16037743
170	0x3d310ae1	0.043223266
171	0xbfcd7e87	-1.6054238
172	0x3ea8dddc	0.32981765
173	0xbe0abe7c	-0.13549227
174	0x3cc64e20	0.024207175
175	0xbe13705b	-0.14398329
176	0xbef9574e	-0.4869942
177	0xbfd89b94	-1.6922479
178	0x3e966902	0.2937699
179	0xbdf2c76c	-0.11854443

adk1.ADKGenerator.spectral_branch.1.bias f4 [3]
0	0x3ee32ee3	0.4437171
1	0xbe38dd59	-0.18053187
2	0x3eb02df0	0.34410048
